models/task2_cnn.pth (torch, 533747 bytes, 12 tensors)

weight f4 [16, 3, 3, 3]
-0.21325596 -0.18445714 -0.17610951 -0.0056484602 -0.04787355 0.18688926 -0.09166325 -0.052924678
0.040960588 0.013172584 0.13777266 -0.022977076 0.16310307 0.04642717 0.2004486 -0.1285885
0.04667614 0.2503999 0.12322857 0.033923376 0.1471907 -0.090874225 0.18671004 0.03634558
-0.08514579 0.04235351 0.10320682 -0.09123474 0.20065962 0.20189838 0.14437032 -0.031469144
0.16894116 0.13600516 -0.1078955 0.11449149 -0.08929433 -0.034680326 0.1297838 0.21213144
0.07422728 0.109803155 0.0227742 0.20059809 0.12665609 0.086865455 0.046405327 -0.17264505
-0.08967741 -0.1519377 0.12988147 0.11835978 0.08852937 -0.18407616 0.16127385 -0.039279655
0.062295467 -0.05157294 -0.06197203 0.12673886 0.15014267 0.0755403 0.095420085 0.035849463
0.15839231 0.17558149 0.078772895 0.0065252497 -0.010875425 0.18274343 0.19678794 -0.116036706
0.061939515 -0.20235005 -0.15342723 -0.26681426 -0.18492895 -0.09981368 -0.06868692 -0.24236959
-0.07661303 0.0014408644 0.07250713 0.1799933 0.014785681 0.13645849 0.13838089 -0.12545279
0.16952696 0.0654304 0.17202425 -0.0062330035 0.30075806 0.24020566 0.08813573 0.12499679
0.04034306 -0.06209662 0.2368441 0.023967827 0.18590327 0.28460816 0.031737108 0.2932529
0.18968707 0.04772404 0.094099976 0.16845983 -0.003553584 -0.05351197 -0.058221675 -0.19196819
-0.032202605 -0.26536277 -0.040419295 -0.02091441 -0.19476762 -0.14150351 -0.1991283 -0.104167216
-0.12922892 0.05108334 0.09388671 -0.07471969 -0.14424971 0.18219651 0.02572397 -0.04301709
-0.015879946 -0.05958807 -0.25015652 -0.07020641 -0.009677349 -0.011951711 -0.060864624 -0.0038374779
0.07246373 0.049489096 0.22304678 -0.009486517 0.09234728 -0.032148853 0.06892656 0.15954067
0.05184343 0.26492006 0.21301934 0.031607743 0.16778739 0.15936935 0.16178484 -0.030559286
-0.104789175 0.13425156 -0.13375278 -0.010790772 0.102651015 0.115288034 -0.049083106 -0.15992774
-0.08167124 0.051067136 -0.01775177 0.12402733 0.04690589 -0.04647011 0.07360709 0.18685319
0.14414713 0.024909768 -0.18693136 0.13773732 0.03089337 0.040082864 -0.09161139 0.048588976
0.14445838 0.18272936 -0.11576054 -0.05547257 -0.055027567 -0.11689758 0.039440744 0.006675877
-0.120725855 -0.092766725 -0.30794916 -0.03220538 -0.11498503 -0.18637694 -0.22111118 -0.14779937
-0.28919378 -0.10342029 -0.015085026 -0.113940306 -0.1463838 -0.16621059 -0.12857036 -0.09956288
0.10026492 -0.1081993 -0.11030767 0.03012206 -0.04229315 0.060228657 -0.034444243 -0.07228502
-0.0889667 0.012731362 0.07140323 -0.22485638 -0.24099119 0.0911567 -0.1323134 0.10967753
-0.17818832 -0.08920031 0.037327353 -0.03383969 0.11703168 -0.06819246 0.21098079 -0.17162426
0.049512926 0.080087274 -0.11954465 -0.17284916 0.10788005 0.14068727 -0.16151138 -0.07204812
-0.044951953 -0.12825665 -0.032762673 0.08128599 -0.052476194 0.10604599 0.055384345 -0.015670164
0.24021955 -0.11392342 0.13641673 0.096086204 -0.124148875 -0.008743871 0.1743823 -0.10532117
0.003188567 0.017207896 -0.17839544 -0.12978284 0.031842653 0.23658358 0.19703047 0.23334709
00000000: c55f 5abe 55e2 3cbe 0d56 34be b816 b9bb
00000010: 0e17 44bd e65f 3f3e f1b9 bbbd 8cc7 58bd
00000020: 4ac6 273d d2d1 573c 4714 0d3e 6c3a bcbc
00000030: 7e04 273e 6b2a 3e3d 6642 4d3e b4ac 03be
00000040: 7b2f 3f3d 6a34 803e 435f fc3d 3df3 0a3d
00000050: 29b9 163e 441c babd eb30 3f3e 1adf 143d
00000060: ea60 aebd e07a 2d3d 195e d33d 48d9 babd
00000070: b779 4d3e 73be 4e3e d0d5 133e cae5 00bd
00000080: e9fe 2c3e f044 0b3e 51f8 dcbd 847a ea3d
00000090: f2df b6bd f50c 0ebd 0be6 043e fc38 593e
000000a0: 7904 983d 7ae0 e03d f690 ba3c 9669 4d3e
000000b0: 22b2 013e 84e6 b13d 8313 3e3d ddc9 30be
000000c0: caa8 b7bd 8e95 1bbe a6ff 043e 9d66 f23d
000000d0: e34e b53d 767e 3cbe f924 253e b4e3 20bd
000000e0: 8829 7f3d 263e 53bd 62d6 7dbd d5c7 013e
000000f0: 00bf 193e dfb4 9a3d 9b6b c33d e3d6 123d
00000100: 9831 223e a2cb 333e af53 a13d c3d1 d53b
00000110: d72e 32bc 1821 3b3e c782 493e a7a4 edbd
00000120: 4ab4 7d3d da34 4fbe 071c 1dbe e19b 88be
00000130: 045e 3dbe 1d6b ccbd baab 8cbd bc2f 78be
00000140: 4be7 9cbd 63db bc3a 9e7e 943d 2a50 383e
00000150: a43f 723c c6bb 0b3e b8b3 0d3e b276 00be
00000160: 7a98 2d3e 6000 863d 2027 303e 393e ccbb
00000170: f6fc 993e 79f8 753e 8180 b43d 51fe ff3d
00000180: c43e 253d 0759 7ebd 4287 723e 2d58 c43c
00000190: 6d5d 3e3e 29b8 913e c5fe 013d 3e25 963e
000001a0: 543d 423e 487a 433d 7db7 c03d bc80 2c3e
000001b0: 3fe3 68bb 5e2f 5bbd da79 6ebd 4f93 44be
000001c0: e1e6 03bd a1dd 87be b48e 25bd b254 abbc
000001d0: 2a71 47be 4ce6 10be 4ae8 4bbe 9f55 d5bd
000001e0: 9654 04be c43c 513d ad47 c03d a306 99bd
000001f0: 32b6 13be b991 3a3e 13bb d23c b032 30bd
00000200: a916 82bc 9f12 74bd 8414 80be 61c8 8fbd
00000210: be8d 1ebc 1cd1 43bc 2f4d 79bd 327e 7bbb
00000220: dd67 943d 14b5 4a3d 6066 643e 566d 1bbc
00000230: 9220 bd3d 84ae 03bd 5e29 8d3d a15e 233e
00000240: c759 543d 9aa3 873e be21 5a3e 1f77 013d
00000250: 75d0 2b3e b831 233e edaa 253e 7857 fabc
00000260: b59b d6bd 3e79 093e 7df6 08be c7cb 30bc
00000270: b23a d23d 221c ec3d 5e0b 49bd 19c4 23be
00000280: 4043 a7bd c62b 513d 296c 91bc 0a02 fe3d
00000290: 6420 403d 7157 3ebd 50bf 963d 7156 3f3e
000002a0: 4e9b 133e 920f cc3c ef6a 3fbe 030b 0d3e
000002b0: 1814 fd3c ee2d 243d c19e bbbd 3c05 473d
000002c0: e6ec 133e 681d 3b3e dd13 edbd 3537 63bd
000002d0: 9664 61bd 0068 efbd 9e8c 213d 51c1 da3b
000002e0: 1e3f f7bd 7bfc bdbd 83ab 9dbe cae9 03bd
000002f0: 457d ebbd 99d9 3ebe f86a 62be b858 17be
00000300: 3511 94be 04ce d3bd 2f27 77bc 8959 e9bd
00000310: a3e5 15be 1c33 2abe f3a7 03be a0e7 cbbd
00000320: b257 cd3d 9897 ddbd fde8 e1bd 8ac2 f63c
00000330: 953b 2dbd 53b2 763d 6815 0dbd 2b0a 94bd
00000340: 2c34 b6bd 3497 503c db3b 923d c040 66be
00000350: 65c6 76be 5db0 ba3d 2a7d 07be 9d9e e03d
00000360: 0077 36be a7ae b6bd 91e4 183d 7d9b 0abd
00000370: 4eae ef3d 7da8 8bbd 590b 583e 45be 2fbe
00000380: 11ce 4a3d cc04 a43d d3d3 f4bd 5fff 30be
00000390: 37f0 dc3d 5310 103e 3d63 25be f78d 93bd
000003a0: 8a1f 38bd b655 03be 2732 06bd 4579 a63d
000003b0: 47f1 56bd a42e d93d b2da 623d b75e 80bc
000003c0: 1dfc 753e af50 e9bd d4b0 0b3e d8c8 c43d
000003d0: c441 febd 7442 0fbc 4691 323e a0b2 d7bd
000003e0: 47f7 503b 93f7 8c3c 4bad 36be cbe5 04be
000003f0: 716d 023d f742 723e 5bc2 493e 8af2 6e3e

bias f4 [16]
0.061881375 0.22583732 -0.007658485 -0.21339923 0.2287954 -0.10798566 -0.0053879446 0.25711992
0.12747052 0.10819548 -0.13295147 0.18132041 0.13970102 0.11195598 -0.1689991 -0.09569746
00000000: 5377 7d3d e641 673e 07f4 fabb 5485 5abe
00000010: 5749 6a3e 9627 ddbd 5b8d b0bb 39a5 833e
00000020: a287 023e 9895 dd3d 6e24 08be 0fac 393e
00000030: c90d 0f3e 2d49 e53d 1a0e 2dbe 08fd c3bd

weight f4 [32, 16, 3, 3]
0.059434526 0.11703124 0.0858606 0.018367099 0.044945665 -0.029505724 0.038317848 0.081597224
0.094578095 0.0055617364 -0.060986567 0.078588225 0.028399413 -0.027320735 -0.0036239827 0.01908437
-0.0023627165 0.039672486 0.039863203 -0.030090233 0.012741621 -0.040015616 -0.0022734941 -0.006837425
-0.0012726679 0.039839033 0.07252 -0.0113942465 0.062097736 0.13208756 0.1068989 0.07533823
0.087928414 0.083226226 0.072188854 0.090992115 -0.23548187 -0.27712455 -0.18049115 -0.2075276
-0.2835113 -0.30354992 -0.30545905 -0.36066225 -0.20588905 0.08137334 0.08947082 0.05949519
0.030022461 0.049138527 0.038849622 0.05721524 0.11451034 0.014736374 -0.021558419 -0.035631295
-0.025966322 0.029390229 0.11386691 -0.039008413 0.04502245 0.06866394 0.10216801 -0.13614987
-0.257187 -0.18259272 -0.23763524 -0.23653737 -0.28532305 -0.16727258 -0.3489333 -0.21501388
-0.0034274706 -0.013253466 -0.012996398 -0.046782248 -0.08932839 -0.10963834 -0.07311015 0.055047356
0.021258831 0.09016245 0.13318388 -0.015957082 0.017404739 0.12937929 0.07384252 0.03463675
0.070208125 0.06223702 0.014282182 0.12930243 0.00306767 0.05365809 -0.0061139255 0.08276771
-0.013555755 0.004692922 0.10398477 -0.02376123 0.03999733 0.07133565 0.014477044 -0.049893416
-0.040662583 0.064785086 0.057453703 -0.023467246 -0.025881927 -0.0022117235 -0.018189475 -0.058566064
-0.09235964 0.030686086 -0.026420653 0.011171087 -4.5835368e-05 0.057648636 -0.012046834 -0.170535
0.016748691 -0.01138257 -0.033484373 0.056428205 0.060416687 0.08438357 0.14660797 0.1319818
0.16005953 0.06899482 0.038384147 0.11187302 0.07058884 0.024224441 0.08424053 0.005081561
0.01763173 0.12649421 0.053836383 0.053684987 0.07868903 0.05652579 -0.021306036 -0.031333067
-0.10073006 -0.10299243 0.046278305 -0.0739264 -0.06571338 0.025106972 0.024254132 0.1083124
0.055295084 0.07939175 0.023081938 -0.0016501977 -0.055569418 0.0023191997 0.003045419 0.020143127
0.04083615 0.07891733 0.078035064 -0.13158059 -0.14390832 -0.04668478 -0.03760862 -0.11241516
0.064475685 0.020793725 -0.03738623 -0.025997275 -0.17734142 -0.026501026 0.046294436 -0.06173631
-0.08153669 0.09264301 -0.0056756963 -0.03474364 0.23972416 0.1806925 0.19732815 0.2650886
0.19882639 0.2741547 0.17236249 0.19284193 0.16545855 0.14624041 -0.055641927 -0.022540264
-0.029976077 -0.12554221 -0.045810353 -0.014545801 -0.034522902 0.10942633 -0.048392314 -0.123177566
-0.06909156 -0.10030208 -0.19142874 -0.063234806 -0.013277044 0.021914443 -0.053255465 0.22585833
0.27406487 0.21801047 0.17361239 0.30375084 0.28711572 0.15692139 0.1734009 0.15915662
0.09678565 -0.013225501 -0.045105714 -0.03128489 -0.05196903 -0.07575422 0.086004496 0.0244115
0.06849533 0.14868623 -0.0074434024 0.08286338 0.008514521 -0.0697382 -0.09194041 0.01929892
-0.024341477 -0.00047487384 0.022201028 -0.1865278 0.007416235 -0.08348778 -0.19706914 -0.15475309
0.054340757 0.025280464 0.10308268 0.10987198 0.11009296 0.15910372 -0.14571184 -0.12547612
-0.0032161153 0.019772435 0.019861931 -0.052612297 0.090875134 -0.09503089 -0.028955191 0.071062945
00000000: 9e71 733d 13ae ef3d afd7 af3d 9976 963c
00000010: f218 383d fdb5 f1bc 2df3 1c3d 721c a73d
00000020: 29b2 c13d 3a3f b63b 0dcd 79bd ddf2 a03d
00000030: e3a5 e83c bccf dfbc 5780 6dbb d356 9c3c
00000040: ced7 1abb 9e7f 223d 9947 233d cb7f f6bc
00000050: 3bc2 503c 6ae7 23bd e7fe 14bb 7a0c e0bb
00000060: a6cf a6ba 412e 233d 5e85 943d efae 3abc
00000070: 325a 7e3d f641 073e cfed da3d ee4a 9a3d
00000080: d013 b43d 8372 aa3d c0d7 933d 135a ba3d
00000090: 2922 71be 45e3 8dbe acd2 38be 1d82 54be
000000a0: 6528 91be e56a 9bbe 2165 9cbe b9a8 b8be
000000b0: 94d4 52be 11a7 a63d 7a3c b73d 3ab1 733d
000000c0: aaf1 f53c 7b45 493d c820 1f3d 875a 6a3d
000000d0: 6684 ea3d d570 713c 489b b0bc 1ff2 11bd
000000e0: 53b7 d4bc c7c3 f03c 0e33 e93d 49c7 1fbd
000000f0: 7669 383d ae9f 8c3d 763d d13d df6a 0bbe
00000100: 04ae 83be 96f9 3abe a756 73be da36 72be
00000110: dd15 92be 8149 2bbe 63a7 b2be 992c 5cbe
00000120: 6a9f 60bb 1125 59bc d8ee 54bc be9e 3fbd
00000130: cef1 b6bd 118a e0bd c6ba 95bd 5679 613d
00000140: 0027 ae3c 17a7 b83d 5b61 083e 6db8 82bc
00000150: 6294 8e3c 017c 043e bf3a 973d 44df 0d3d
00000160: 47c9 8f3d 3fec 7e3d d0ff 693c db67 043e
00000170: f60a 493b 96c8 5b3d 5357 c8bb 1e82 a93d
00000180: f518 5ebc 15c7 993b f8f5 d43d e9a6 c2bc
00000190: 3ed4 233d 6d18 923d 2031 6d3c 0a5d 4cbd
000001a0: cf8d 26bd 0bae 843d 9354 6b3d 623e c0bc
000001b0: 5606 d4bc 90f2 10bb 1802 95bc f8e2 6fbd
000001c0: 0d27 bdbd 6361 fb3c 2070 d8bc ef06 373c
000001d0: 5a3f 40b8 fa20 6c3d 1660 45bc baa0 2ebe
000001e0: 8d34 893c f57d 3abc e926 09bd 4321 673d
000001f0: 7d77 773d 4bd1 ac3d 6620 163e 3d26 073e
00000200: a5e6 233e 284d 8d3d b238 1d3d af1d e53d
00000210: e290 903d 5672 c63c 4d86 ac3d 3983 a63b
00000220: 6b70 903c b387 013e 8a83 5c3d cae4 5b3d
00000230: b727 a13d 9687 673d ff89 aebc 1a57 00bd
00000240: 904b cebd b2ed d2bd 528e 3d3d b966 97bd
00000250: bd94 86bd 23ad cd3c 9ab0 c63c e4d2 dd3d
00000260: 197d 623d 2498 a23d 5516 bd3c 724b d8ba
00000270: c29c 63bd b7fd 173b a795 473b 3303 a53c
00000280: cf43 273d 699f a13d d9d0 9f3d 10bd 06be
00000290: b45c 13be 8a38 3fbd 7f0b 1abd eb39 e6bd
000002a0: d40b 843d 9a57 aa3c 4e22 19bd 3df8 d4bc
000002b0: fd98 35be ae18 d9bc 3c9f 3d3d 37df 7cbd
000002c0: b5fc a6bd 9ebb bd3d 31fb b9bb 594f 0ebd
000002d0: 407a 753e 7407 393e 6410 4a3e b1b9 873e
000002e0: 2599 4b3e 015e 8c3e cb7f 303e 5b78 453e
000002f0: f76d 293e 0cc0 153e cae8 63bd 5ca6 b8bc
00000300: 6490 f5bc 238e 00be a3a3 3bbd 8351 6ebc
00000310: e367 0dbd e91a e03d 0537 46bd 8544 fcbd
00000320: e07f 8dbd 2d6b cdbd e505 44be 4081 81bd
00000330: f587 59bc eb85 b33c 6722 5abd 6847 673e
00000340: 3b52 8c3e 233e 5f3e 72c7 313e 3b85 9b3e
00000350: d500 933e 00b0 203e 0190 313e f4f9 223e
00000360: 8e37 c63d c6af 58bc c5c0 38bd 9624 00bd
00000370: 7add 54bd 0725 9bbd 2023 b03d a0fa c73c
00000380: 4847 8c3d 3441 183e c9e7 f3bb 47b4 a93d
00000390: 7d80 0b3c e7d2 8ebd 414b bcbd c518 9e3c
000003a0: c767 c7bc 7df8 f8b9 eede b53c 2501 3fbe
000003b0: e303 f33b a4fb aabd 7ecc 49be 9877 1ebe
000003c0: 6a94 5e3d fa18 cf3c 031d d33d 9004 e13d
000003d0: 6b78 e13d 16ec 223e 7c35 15be d07c 00be
000003e0: 76c5 52bb cdf9 a13c 7db5 a23c fe7f 57bd
000003f0: be1c ba3d 8e9f c2bd 7033 edbc 7389 913d

bias f4 [32]
0.009711523 -0.025308492 0.09200025 -0.000154911 0.06401992 -0.029076152 -0.0035994977 0.03380289
0.039182223 0.02734702 0.030818066 0.06399285 0.042903487 -0.09040796 -0.109247714 -0.045740057
0.058074445 -0.059315134 -0.09922718 0.013887452 0.119269155 -0.098215975 0.015529958 -0.087206334
0.06258881 0.07296083 0.09649741 -0.02271023 0.035369188 -0.117243215 -0.022122417 -0.021576297
00000000: 141d 1f3c c153 cfbc a16a bc3d 9b6f 22b9
00000010: e01c 833d 1c31 eebc 8de5 6bbb e674 0a3d
00000020: 8a7d 203d dc06 e03c 2b76 fc3c af0e 833d
00000030: 91bb 2f3d cf27 b9bd 44bd dfbd ed59 3bbd
00000040: 78df 6d3d 6df4 72bd 9f37 cbbd 3288 633c
00000050: 6343 f43d 7525 c9bd 5d71 7e3c 3c99 b2bd
00000060: 902e 803d 7d6c 953d 6fa0 c53d ce0a babc
00000070: 48df 103d 361d f0bd 123a b5bc c6c0 b0bc

weight f4 [64, 32, 3, 3]
0.010672816 0.054694995 0.04747628 0.017329415 0.035885315 0.043214846 -0.022516426 -0.021306265
0.03285046 0.024149772 -0.08153691 -0.036074292 -0.06634911 -0.0018573822 -0.08427055 0.029580267
0.05513233 -0.10874431 -0.013223036 0.042381853 0.06798155 -0.08194146 0.011668535 -0.0020715964
-0.035540767 0.011141543 0.009263762 0.027485887 0.047693785 0.055457495 -0.050477605 -0.026507
-0.008836749 -0.048707888 -0.033115458 0.0032229505 0.114108294 0.084465496 -0.049574636 0.06471256
-0.015378153 0.04431428 -0.034799006 -0.073321976 -0.047747783 0.07471346 -0.02377867 -0.002410438
-0.04558716 -0.008523629 0.018962003 -0.009129419 0.03597022 0.013134182 0.0029925706 0.047049243
-0.026152657 -0.073904835 0.024500584 -0.06868165 -0.05699217 -0.06234374 -0.08964398 0.09694121
-0.057945225 -0.021621566 0.047562487 0.07427586 0.025338098 -0.0018448606 -0.038993914 0.06710696
-0.0127995135 0.07402772 0.04890739 -0.03878301 0.012741231 -0.017626395 -0.06779828 -0.02791239
-0.009516297 0.025055597 0.06764437 -0.0046769995 -0.057661615 0.03285298 -0.06323017 -0.014403652
-0.021945054 0.0074130734 0.0010088697 0.008589869 0.022027463 0.011529731 0.049405247 0.04351241
-0.0159888 0.004058907 0.004442508 -0.03281264 -0.014117867 -0.021156896 0.04852396 -0.016180914
0.029535552 0.03627254 -0.005444038 -0.0045639225 0.0766126 0.11828219 0.04994451 0.024621949
-0.021087736 0.015401959 -0.01940131 -0.0098167835 -0.09251546 -0.027387228 -0.105172865 -0.022540908
-0.0064506847 0.009223882 0.10491366 0.009021592 0.120035455 -0.021181583 0.06670197 0.047915284
0.02440428 0.026207596 -0.008821153 0.031611837 -0.06200249 0.021386508 0.039423596 0.057324383
0.049689934 0.055219498 -0.08761886 -0.012773587 -0.05443082 0.03175633 -0.061814148 -0.05767764
0.04173105 -0.029479036 0.0003345694 0.06784259 0.014989324 0.023095427 -0.06733907 0.026031416
-0.026106576 0.0075107124 0.051137123 0.029421449 -0.056414742 -0.0648133 0.053812202 0.025810901
-0.0022530952 -0.026384244 -0.02563707 0.01101412 0.021402812 -0.04645984 -0.090432666 -0.065772176
0.07483777 0.14741309 -0.044076912 0.09724932 0.08749852 -0.0012567391 0.0038584876 0.043588415
0.059396308 0.0029542174 -0.015884824 0.027206618 0.011347194 0.037453443 0.020502748 0.005551488
0.00038310752 0.030406456 0.016421584 -0.02733004 -0.00031636885 0.12890202 0.12722659 0.032699883
-0.11063445 -0.019195786 -0.014918377 0.06422671 0.011359336 0.025729265 0.07925251 0.027451737
0.05157675 -0.038894262 0.006473753 -0.07918957 -0.0371426 0.02807416 -0.06032315 0.09078886
0.0076902546 -0.03643572 0.020006476 0.08766582 0.039061 -0.05218228 -0.0038721745 -0.0363469
-0.03059517 0.051568322 -0.050494056 -0.06433175 -0.02010603 0.031743657 -0.0073765083 -0.018539427
-0.054911684 -0.03249381 0.08597988 0.06147042 -0.013948156 0.005775641 -0.033453234 0.011038553
-0.014140646 0.016086156 0.00540577 -0.0034140581 0.03371816 -0.04026279 -0.029107524 0.028821794
-0.086169586 -0.022896668 -0.0413761 0.016925652 -0.08247578 -0.029055826 0.08175836 0.043070465
0.042516988 0.07273117 0.050780013 0.03442487 -0.027227236 -0.16105106 -0.16209039 0.046591356
00000000: 09dd 2e3c dc07 603d 7d76 423d 6bf6 8d3c
00000010: 7bfc 123d 0d02 313d 5e74 b8bc 7a8a aebc
00000020: 348e 063d bed5 c53c d3fc a6bd a3c2 13bd
00000030: 0be2 87bd 6873 f3ba 0a96 acbd 5152 f23c
00000040: 70d2 613d 56b5 debd 6fa5 58bc 9898 2d3d
00000050: e939 8b3d edd0 a7bd 622d 3f3c 9fc3 07bb
00000060: 3293 11bd 058b 363c 09c7 173c 152a e13c
00000070: 8f5a 433d 6627 633d 9bc1 4ebd 3525 d9bc
00000080: 03c8 10bc ec81 47bd 13a4 07bd 2338 533b
00000090: 9cb1 e93d 3ffc ac3d c60e 4bbd 0588 843d
000000a0: a6f4 7bbc e482 353d 6789 0ebd d529 96bd
000000b0: 2e93 43bd 5f03 993d 7ccb c2bc 70f8 1dbb
000000c0: 9ab9 3abd b1a6 0bbc 3456 9b3c 8f93 15bc
000000d0: 8255 133d c130 573c 011f 443b b5b6 403d
000000e0: 193e d6bc 6b5b 97bd 73b5 c83c f7a8 8cbd
000000f0: 9f70 69bd 265c 7fbd 4397 b7bd 1d89 c63d
00000100: f957 6dbd b61f b1bc e2d0 423d f11d 983d
00000110: d891 cf3c 40cf f1ba 15b8 1fbd 606f 893d
00000120: 0db5 51bc d89b 973d 1e53 483d efda 1ebd
00000130: 99c0 503c 3b65 90bc d3d9 8abd 86a8 e4bc
00000140: 3eea 1bbc 6541 cd3c 2289 8a3d 8441 99bb
00000150: 962e 6cbd d990 063d d27e 81bd 4cfd 6bbc
00000160: 1dc6 b3bc 5ee9 f23b 0d3c 843a 86bc 0c3c
00000170: f072 b43c 32e7 3c3c 285d 4a3d 123a 323d
00000180: f2fa 82bc 9400 853b 7592 913b 8c66 06bd
00000190: a04e 67bc 3a51 adbc 0fc1 463d d68d 84bc
000001a0: 8bf4 f13c 8492 143d e763 b2bb f58c 95bb
000001b0: 11e7 9c3d ef3d f23d 9d92 4c3d f8b3 c93c
000001c0: 30c0 acbc 8058 7c3c 7fef 9ebc 93d6 20bc
000001d0: bf78 bdbd 2e5b e0bc df64 d7bd b6a7 b8bc
000001e0: 4460 d3bb c41f 173c f9dc d63d 4dcf 133c
000001f0: 26d5 f53d 0085 adbc 0b9b 883d d142 443d
00000200: 7ceb c73c 50b1 d63c 9986 10bc 6a7b 013d
00000210: 53f6 7dbd c232 af3c a37a 213d f9cc 6a3d
00000220: ac87 4b3d d72d 623d 8471 b3bd 4f48 51bc
00000230: daf2 5ebd ed12 023d d530 7dbd 643f 6cbd
00000240: 2dee 2a3d 057e f1bc 2569 af39 0ef1 8a3d
00000250: c895 753c 9f32 bd3c 11e9 89bd d63f d53c
00000260: 75dd d5bc 6c1c f63b 2975 513d 4005 f13c
00000270: 2513 67bd d6bc 84bd 2f6a 5c3d 6271 d33c
00000280: aaa8 13bb c523 d8bc d504 d2bc 9174 343c
00000290: f354 af3c ac4c 3ebd c334 b9bd 90b3 86bd
000002a0: 8b44 993d 75f3 163e fe89 34bd a72a c73d
000002b0: 6d32 b33d 2bb9 a4ba aede 7c3b c489 323d
000002c0: 8b49 733d 8b9b 413b e420 82bc 6ae0 de3c
000002d0: 95e9 393c c868 193d 61f5 a73c 42e9 b53b
000002e0: d2db c839 f616 f93c 8f86 863c 3fe3 dfbc
000002f0: 4fde a5b9 e4fe 033e b047 023e 50f0 053d
00000300: 5194 e2bd 7b40 9dbc 356c 74bc 4b89 833d
00000310: 821c 3a3c 2ec6 d23c 244f a23d 77e2 e03c
00000320: 2442 533d 974f 1fbd c721 d43b 242e a2bd
00000330: d722 18bd c8fb e53c 6815 77bd 83ef b93d
00000340: 88fe fb3b 9f3d 15bd 9fe4 a33c 238a b33d
00000350: 6dfe 1f3d 16bd 55bd 4fc4 7dbb 7de0 14bd
00000360: b9a2 fabc 4e39 533d dbd2 4ebd 5dc0 83bd
00000370: 67b5 a4bc a305 023d a3b6 f1bb ffdf 97bc
00000380: 13eb 60bd 3b18 05bd 3816 b03d 68c8 7b3d
00000390: ce86 64bc 9741 bd3b 4206 09bd 0cdb 343c
000003a0: 2bae 67bc 1dc7 833c e322 b13b 64be 5fbb
000003b0: 0e1c 0a3d 98ea 24bd e772 eebc af1b ec3c
000003c0: ae79 b0bd cb91 bbbc fc79 29bd aaa7 8a3c
000003d0: 10e9 a8bd 7c06 eebc ed70 a73d a86a 303d
000003e0: 4b26 2e3d 14f4 943d b4fe 4f3d 1801 0d3d
000003f0: a70b dfbc 92ea 24be 06fb 25be 94d6 3e3d

bias f4 [64]
-0.09031945 -0.06340337 0.09572971 -0.07446019 -0.037327383 0.03155084 0.071997195 -0.023365716
0.0153816035 -0.05166385 -0.102579735 0.11860107 0.005657389 -0.083815366 0.07307363 -0.024962561
-0.028416136 0.0178099 -0.05123292 -0.045227785 -0.014152146 0.049062796 -0.03619383 0.015504109
0.015162797 0.04059623 0.047634374 0.044593718 0.031099778 0.008345328 0.06122991 -0.03266033
0.0007798476 -0.011214357 0.041756485 0.024771586 0.067110986 -0.023591036 0.050075557 -0.00623251
0.008152519 0.09018189 0.03421274 0.093041696 -0.03254414 -0.11897765 0.014605505 -0.026672516
-0.017788498 -0.091351055 -0.06043009 0.02754074 -0.03832835 -0.04050665 0.039377265 -0.02930865
0.015906576 -0.04735477 -0.047991782 -0.015152565 0.070690714 -0.08896595 -0.06873144 -0.028001402
00000000: 67f9 b8bd a0d9 81bd f00d c43d 967e 98bd
00000010: 99e4 18bd 743b 013d 4473 933d 7569 bfbc
00000020: 1f03 7c3c 799d 53bd 5315 d2bd 1ee5 f23d
00000030: 9e61 b93b 64a7 abbd a1a7 953d 497e ccbc
00000040: f5c8 e8bc 11e6 913c 9cd9 51bd c540 39bd
00000050: 67de 67bc 12f6 483d fb3f 14bd f204 7e3c
00000060: 616d 783c 3c48 263d 431c 433d e7a7 363d
00000070: f6c4 fe3c d8ba 083c 37cc 7a3d d7c6 05bd
00000080: b06e 4c3a 6cbc 37bc d908 2b3d c8ed ca3c
00000090: 7c71 893d fd41 c1bc 071c 4d3d 153a ccbb
000000a0: 2592 053c 48b1 b83d a822 0c3d a58c be3d
000000b0: 014d 05bd 8eaa f3bd ee4b 6f3c 5280 dabc
000000c0: 2fb9 91bc 4316 bbbd 8b85 77bd 1e9d e13c
000000d0: 30fe 1cbd 4dea 25bd 0e4a 213d b218 f0bc
000000e0: 824e 823c 13f7 41bd 0893 44bd 7742 78bc
000000f0: 4bc6 903d c833 b6bd 12c3 8cbd 3263 e5bc

weight f4 [64, 64, 3, 3]
0.048374206 0.071578026 0.047016017 0.023925168 0.01352396 -0.04034767 -0.04404043 -0.02859174
-0.03299625 0.01552473 -0.015462558 -0.03590627 0.026232077 -0.062339555 -0.035738543 -0.028939348
0.010307636 -0.054516032 0.04352077 0.10116387 0.035988007 0.052448858 -0.024407879 0.036948465
-0.03164371 -0.0054477504 -0.00097528583 -0.033030614 -0.013194796 0.05341722 -0.010225261 -0.010019823
-0.051838025 -0.050170075 -0.007007094 -0.012643221 0.04749057 0.035114788 -0.008188807 -0.042281523
0.030040428 -0.05573128 -0.051549237 -0.014422933 -0.0048437803 -0.035981115 -0.037157185 -0.008881592
0.04677099 -0.017114457 0.030400371 -0.039375503 0.023984307 0.04132721 0.013077824 0.0253394
0.024766028 0.021984367 0.036967233 0.017685937 0.032038566 -0.04527179 -0.007415481 -0.050736718
-0.022420522 -0.05234386 -0.037544206 -0.02896285 -0.009213771 -0.018114755 0.0014734229 -0.027213356
0.07062457 0.032889307 -0.007775812 -0.09165833 -0.1324296 -0.034088574 -0.015164757 -0.04731785
-0.017225405 0.018928647 0.0043306984 -0.037225604 -0.055252958 -0.047421712 -0.05462961 -0.00072220876
-0.05588468 -0.009410456 0.013463467 0.033174176 -0.0020890217 -0.06306052 -0.037740853 -0.083307564
-0.015621388 -0.058892023 -0.035227705 0.013840442 0.06969885 0.037823696 -0.009186239 -0.06307185
0.021289578 0.023997188 0.0258929 0.07118521 0.06161246 0.028534783 0.024732634 0.025146719
-0.038249005 0.007085739 -0.050729204 0.003348868 -0.013096954 -0.040402178 0.047758073 0.0001136302
-0.034999486 0.016623197 -0.010708337 -0.0024783215 -0.036279913 0.032799616 -0.021443142 0.009431404
0.017715339 -0.024643183 -0.036941104 0.031423427 -0.021852614 0.0013235982 -0.052241802 0.049837194
-0.008549191 0.018062074 0.013706568 -0.016640931 0.029571708 -0.03335106 -0.043795224 -0.016025463
0.04882772 -0.015771873 0.021078896 -0.013482865 0.02171221 0.014807306 -0.00087252236 0.016482798
0.035800546 0.042590078 0.049034987 0.062026124 -0.00752071 0.03225519 -0.03734533 -0.038286146
-0.03487013 0.014906766 0.051798627 0.09957444 0.05087939 -0.009351792 0.011725582 0.033894356
0.010144928 -0.012249034 0.029924626 0.04556063 -0.0035082626 -0.009649147 -0.008968971 -0.032046154
-0.03360264 -0.059914447 -0.06825053 -0.037309512 0.06275791 0.04635107 -0.015738413 -0.0012737724
-0.03833912 0.020485813 -0.048934653 -0.006432721 0.00029074727 0.04857743 -0.01904248 -0.03674368
0.00832555 -0.0074071526 -0.018494345 -0.030977057 0.007995186 0.039976295 0.008894804 0.02268781
0.036372412 -0.010668453 -0.0788584 -0.036781505 -0.07373639 -0.082959294 -0.10059436 -0.011341614
-0.019400688 -0.018792393 0.011452247 -0.052639242 -0.0136877475 -0.0144283 -0.062439658 -0.0704513
0.0021802085 0.014622428 0.013463661 -0.014042109 0.015399733 0.01746813 -0.052170474 -0.0014908641
0.0038230289 0.05595018 0.05399787 0.0041218284 0.029374182 -0.054971855 0.033476036 0.02209804
-0.0020712565 -0.0038645093 0.057335198 0.039698936 -0.0046938127 0.036539804 0.011207881 0.022522261
0.028448243 0.028350763 -0.019582283 0.03997196 -0.03378961 0.01709494 0.011064432 -0.04018838
0.033476144 -0.004903892 0.018239629 0.021077955 -0.03347156 -0.017583856 -0.021242969 0.03510794
00000000: 0824 463d 8097 923d de93 403d b7fe c33c
00000010: 9993 5d3c 9943 25bd bd63 34bd 3a39 eabc
00000020: 1327 07bd 705b 7e3c ab56 7dbc 7412 13bd
00000030: a7e4 d63c c357 7fbd 9462 12bd 3612 edbc
00000040: 5ce1 283c 344c 5fbd d642 323d 012f cf3d
00000050: 2968 133d 9dd4 563d 08f3 c7bc 4657 173d
00000060: d69c 01bd 0b83 b2bb 53aa 7fba 1c4b 07bd
00000070: fc2e 58bc 04cc 5a3d da87 27bc 2f2a 24bc
00000080: 1c54 54bd 237f 4dbd c49b e5bb 8325 4fbc
00000090: 7985 423d 86d4 0f3d 592a 06bc 642f 2dbd
000000a0: 5817 f63c 7c46 64bd 4b25 53bd 2a4e 6cbc
000000b0: 93b8 9ebb ef60 13bd 2232 18bd 1984 11bc
000000c0: f092 3f3d 9e33 8cbc 330a f93c 3548 21bd
000000d0: bd7a c43c b846 293d 5f44 563c 9394 cf3c
000000e0: 20e2 ca3c 8f18 b43c f46a 173d 19e2 903c
000000f0: df3a 033d ea6e 39bd 90fd f2bb 4ed1 4fbd
00000100: 3eab b7bc 8466 56bd f4c7 19bd 8043 edbc
00000110: 5bf5 16bc 6565 94bc de1f c13a 8bee debc
00000120: 9da3 903d f0b6 063d 3dcc febb 5db7 bbbd
00000130: a09b 07be 76a0 0bbd 9a75 78bc 5dd0 41bd
00000140: 4b1c 8dbc 4010 9b3c 88e8 8d3b e079 18bd
00000150: ed50 62bd 453d 42bd 4cc3 5fbd 9c52 3dba
00000160: 56e7 64bd 502e 1abc e095 5c3c a5e1 073d
00000170: f8e7 08bb e025 81bd 2796 1abd 289d aabd
00000180: daf0 7fbc c338 71bd ed4a 10bd 05c3 623c
00000190: 45be 8e3d 05ed 1a3d e181 16bc d02b 81bd
000001a0: 7b67 ae3c c095 c43c 591d d43c 8dc9 913d
000001b0: 595d 7c3d c7c1 e93c 189c ca3c 7e00 ce3c
000001c0: fdaa 1cbd 7d2f e83b 6dc9 4fbd af78 5b3b
000001d0: 9b94 56bc c17c 25bd f89d 433d c04c ee38
000001e0: 9f5b 0fbd 5f2d 883c 0572 2fbc 566b 22bb
000001f0: 3f9a 14bd e458 063d 87a9 afbc 2d86 1a3c
00000200: c21f 913c 80e0 c9bc 8e4f 17bd dab5 003d
00000210: 4104 b3bc 967c ad3a 80fb 55bd 1622 4c3d
00000220: e811 0cbc eaf6 933c 8391 603c 9052 88bc
00000230: 5e40 f23c 1f9b 08bd 9f62 33bd d547 83bc
00000240: 93ff 473d 0434 81bc a6ad ac3c 3ce7 5cbc
00000250: cedd b13c 589a 723c fcb9 64ba ef06 873c
00000260: 98a3 123d ef72 2e3d e9d8 483d 1b0f 7e3d
00000270: 4a70 f6bb 051e 043d 6bf7 18bd efd1 1cbd
00000280: fbd3 0ebd 823b 743c cc2a 543d afed cb3d
00000290: e866 503d 4238 19bc a81c 403c cfd4 0a3d
000002a0: e936 263c 2cb0 48bc 7d24 f53c c89d 3a3d
000002b0: e1ea 65bb 7517 1ebc 97f2 12bc d442 03bd
000002c0: eca2 09bd da68 75bd efc6 8bbd dcd1 18bd
000002d0: 3887 803d 9fda 3d3d d8ed 80bc b6f4 a6ba
000002e0: 7b09 1dbd ddd1 a73c b46f 48bd 93c9 d2bb
000002f0: 706f 9839 21f9 463d fafe 9bbc 8a80 16bd
00000300: e367 083c b3b7 f2bb 7481 97bc 99c3 fdbc
00000310: 3efe 023c 2fbe 233d 83bb 113c c9db b93c
00000320: 3dfb 143d bcca 2ebc 8380 a1bd 34a8 16bd
00000330: 1b03 97bd 90e6 a9bd 6a04 cebd 2dd2 39bc
00000340: 31ee 9ebc 81f2 99bc 35a2 3b3c 3f9c 57bd
00000350: 9342 60bc ad64 6cbc bac0 7fbd c548 90bd
00000360: d4e1 0e3b e992 6f3c b096 5c3c e010 66bc
00000370: 294f 7c3c 5319 8f3c b5b0 55bd 1969 c3ba
00000380: c88b 7a3b 042c 653d df2c 5d3d 6710 873b
00000390: 20a2 f03c 2b2a 61bd 2b1e 093d f306 b53c
000003a0: ebbd 07bb b543 7dbb 50d8 6a3d 5a9b 223d
000003b0: 8ece 99bb c3aa 153d 43a1 373c 9b80 b83c
000003c0: 4a0c e93c dc3f e83c 066b a0bc a3b9 233d
000003d0: f966 0abd b00a 8c3c 9747 353c 929c 24bd
000003e0: 481e 093d d4b0 a0bb 466b 953c adab ac3c
000003f0: 7919 09bd 050c 90bc bc05 aebc 58cd 0f3d

bias f4 [64]
0.05720801 0.019564413 -0.050862703 -0.0059122364 -0.02893893 -0.018024502 -0.045426913 -0.023765834
-0.04628849 0.026720209 -0.00068876916 -0.0131154815 0.024634013 0.020652842 -0.07190298 0.020565635
-0.0047395634 0.004987811 0.057955246 -0.06842885 0.050121516 -0.016575411 -0.04136108 -0.0010185244
-0.012493175 0.038758177 0.0364352 -0.05952429 0.038716253 -0.050474215 -0.0076596225 0.02841334
0.00639918 0.06222876 -0.03644315 0.032894347 -0.019679775 -0.01751918 0.0010766264 -0.0124164885
-0.01068878 0.022665743 -0.022985004 -0.04237496 -0.01995596 0.006742437 0.07197446 -0.014814896
0.07285757 -0.050936997 -0.07417029 -0.05820768 0.0022819608 -0.016597837 -0.031683847 0.04062185
0.0578569 -0.04484564 0.0072893584 0.044133432 0.014607124 -0.0355126 -0.012723521 -0.006449108
00000000: f252 6a3d 8c45 a03c 6955 50bd 6fbb c1bb
00000010: 5611 edbc 1fa8 93bc 9211 3abd 91b0 c2bc
00000020: 0099 3dbd 57e4 da3c 848e 34ba 51e2 56bc
00000030: 45cd c93c 2630 a93c df41 93bd 4379 a83c
00000040: 574e 9bbb cb70 a33b 7b62 6d3d 6d24 8cbd
00000050: 384c 4d3d 28c9 87bc 3c6a 29bd 0280 85ba
00000060: 2db0 4cbc e5c0 1e3d 143d 153d becf 73bd
00000070: ef94 1e3d 0dbe 4ebd 92fd fabb 18c3 e83c
00000080: 36b0 d13b 96e3 7e3d 6a45 15bd 39bc 063d
00000090: 7b37 a1bc 6284 8fbc 961d 8d3a 876e 4bbc
000000a0: fe1f 2fbc 82ad b93c 0c4b bcbc 5e91 2dbd
000000b0: ae7a a3bc a9ef dc3b 5867 933d 2dba 72bc
000000c0: 5a36 953d 50a3 50bd 98e6 97bd 2d6b 6ebd
000000d0: f38c 153b 30f8 87bc ecc6 01bd 1963 263d
000000e0: 5bfb 6c3d 10b0 37bd 92db ee3b 42c5 343d
000000f0: b852 6f3c a975 11bd 5176 50bc 0a53 d3bb

weight f4 [256, 256]
0.04048628 -0.0001576722 -0.0637348 0.004237547 0.049086224 0.04324867 0.0048619504 0.07455597
0.03358804 -0.0395689 -0.034518555 -0.038356982 -0.013182644 0.048889127 -0.09646175 -0.047108714
0.030907683 -0.006053113 -0.018218827 0.009404528 -0.02760942 0.041801568 -0.012973423 0.0244076
-0.017853124 0.0004907554 0.020286793 0.0015231036 -0.09793778 -0.044402916 -0.053810086 0.057559375
-0.012341847 0.035101265 -0.07447087 -0.0053875484 -0.042364426 -0.055658877 0.0034823567 -0.01310809
-0.090733685 -0.006712377 -0.030988464 0.03743197 -0.032866903 -0.072683305 -0.03585978 0.006822967
-0.06454769 0.028979274 -0.056178056 -0.06002772 -0.0035567102 -0.018792305 -0.07167354 0.012808015
0.04726667 -0.06240232 -0.009793202 -0.09961936 -0.037008725 0.05650595 -0.042650826 0.056925498
-0.05511653 0.036210712 0.046919685 0.0969544 0.03387102 -0.018723654 -0.026070625 -0.015183742
0.04967907 -0.02034243 -0.06245182 0.05351714 -0.0016521752 -0.02601928 -0.0112700565 0.041390326
-0.036147065 -0.0053326804 -0.008842062 0.05812563 -0.03417159 -0.01815683 0.026817314 0.03489013
0.048551694 0.03291358 -0.060956992 0.015497178 0.026253685 0.056515124 -0.044645004 -0.001829974
0.037845187 0.0421751 0.054900505 0.015942171 -0.095734246 -0.06622247 -0.040094916 -0.02688572
0.0051573487 0.029520106 -0.017127598 0.052046876 -0.050146554 -0.03743145 0.0008816414 -0.0021516655
-0.027774634 -0.055616807 -0.014120742 -0.0047653476 -0.079614736 0.006209797 -0.032612696 -0.028752116
-0.042005245 -0.034481436 -0.07362069 0.053501733 -0.0007414907 -0.10419688 0.009619698 0.050399415
-0.020565137 0.07595516 -0.049354594 -0.00998452 -0.044166155 0.0034491622 0.034815386 0.021353206
-0.00498719 0.03090205 0.066508844 -0.02242451 -0.0011471591 -0.057406742 0.057208106 -0.037327003
0.04096841 0.0074920957 0.054664116 0.041588403 -0.07025625 -0.009293074 0.042365983 0.051886227
0.07192526 -0.010259404 -0.010147647 0.042312805 -0.084277354 -0.029944904 -0.060668934 -0.033230495
-0.03247133 -0.0010365072 0.04095897 0.03687672 -0.08388324 0.009959371 -0.06516262 -0.045671348
0.051968925 -0.05034379 -0.03157284 0.033674777 0.0064553935 0.012966578 -0.048217643 0.049567297
-0.045138456 -0.024015766 -0.073786885 -0.0932499 -0.0051820762 0.027522687 0.009438408 0.0816719
-0.029529767 -0.018479155 -0.010245554 -0.066425815 0.0041564936 -0.042903647 -0.00077944977 0.045856472
0.02210942 -0.06734493 -0.03708934 0.0055258316 -0.009274423 -0.04732924 -0.06953389 0.11232954
-0.052406866 -0.00035004987 0.02361921 0.019262299 -0.017268876 0.0399742 -0.02053033 -0.020477565
-0.07254646 -0.067056246 0.046116445 0.08218821 0.060925577 -0.050967 0.038445666 -0.028074292
0.05282527 0.013874648 0.02980831 0.017105343 -0.012744926 0.010107645 0.039942272 -0.058005743
-0.014193414 -0.024388105 -0.021538071 0.055382326 -0.012343672 0.05847499 -0.020603996 0.03394541
0.03425187 -0.017936071 -0.0031539414 -0.027122105 -0.027053127 0.05165446 0.012219514 0.021038443
0.025883827 0.0437667 0.0028514885 -0.0147926025 -0.059900716 0.0297111 -0.046543945 -0.02558219
-0.050704077 0.008839174 0.01839434 0.021595623 -0.019146381 -0.04142397 -0.038373582 0.018432222
00000000: f1d4 253d cf54 25b9 6487 82bd 1fdb 8a3b
00000010: a30e 493d 8425 313d ff50 9f3b cdb0 983d
00000020: 9d93 093d 0013 22bd 5463 0dbd 361c 1dbd
00000030: 04fc 57bc f73f 483d bd8d c5bd 11f5 40bd
00000040: 1c32 fd3c 3159 c6bb a63f 95bc 7315 1a3c
00000050: 262d e2bc 1f38 2b3d 7b8e 54bc 72f2 c73c
00000060: b740 92bc 0aa6 003a 7d30 a63c e0a2 c73a
00000070: 9a93 c8bd d5df 35bd f767 5cbd 61c3 6b3d
00000080: 7535 4abc 58c6 0f3d 2f84 98bd 088a b0bb
00000090: 5286 2dbd 90fa 63bd 4038 643b 50c3 56bc
000000a0: 95d2 b9bd 80f3 dbbb 85db fdbc 4452 193d
000000b0: 729f 06bd fcda 94bd b4e1 12bd 3293 df3b
000000c0: 9431 84bd f165 ed3c f61a 66bd a0df 75bd
000000d0: b217 69bb 52f2 99bc 94c9 92bd b5d8 513c
000000e0: b29a 413d 9399 7fbd ab73 20bc 3c05 ccbd
000000f0: 7696 17bd c872 673d a2b2 2ebd b62a 693d
00000100: dfc1 61bd af51 143d db2e 403d 0790 c63d
00000110: 57bc 0a3d 5962 99bc 1092 d5bc 3bc5 78bc
00000120: 487c 4b3d 2ba5 a6bc 7bcd 7fbd ca34 5b3d
00000130: cd8d d8ba 6326 d5bc 0ba6 38bc e788 293d
00000140: f20e 14bd c4bd aebb 4cde 10bc 2415 6e3d
00000150: 82f7 0bbd a2bd 94bc fcaf db3c f4e8 0e3d
00000160: 24de 463d 64d0 063d 0aae 79bd e0e7 7d3c
00000170: f811 d73c 677c 673d aedd 36bd bddb efba
00000180: 8e03 1b3d ccbf 2c3d 5adf 603d 2899 823c
00000190: 5110 c4bd a59f 87bd 913a 24bd 713f dcbc
000001a0: fafe a83b 26d4 f13c 2d4f 8cbc 1b2f 553d
000001b0: 7966 4dbd b851 19bd f41d 673a f502 0dbb
000001c0: a187 e3bc 73ce 63bd af5a 67bc a226 9cbb
000001d0: 0d0d a3bd 8e7b cb3b e494 05bd 8f89 ebbc
000001e0: b10d 2cbd 683c 0dbd 72c6 96bd a224 5b3d
000001f0: 9960 42ba 2c65 d5bd f09b 1d3c 9e6f 4e3d
00000200: 3878 a8bc 618e 9b3d 0b28 4abd 1d96 23bc
00000210: 92e7 34bd 570b 623b 949a 0e3d ebec ae3c
00000220: 956b a3bb 4c26 fd3c ca35 883d 9bb3 b7bc
00000230: 465c 96ba 5523 6bbd 0c53 6a3d 33e4 18bd
00000240: 7ece 273d 4180 f53b 7be7 5f3d 9a58 2a3d
00000250: 82e2 8fbd fa41 18bc f487 2d3d a786 543d
00000260: 8d4d 933d 0f17 28bc 5142 26bc 3150 2d3d
00000270: 9b99 acbd 044f f5bc fd7f 78bd b31c 08bd
00000280: a800 05bd 69db 87ba 98c4 273d 0b0c 173d
00000290: faca abbd a12c 233c fb73 85bd e111 3bbd
000002a0: 5edd 543d 4a35 4ebd 8652 01bd 90ee 093d
000002b0: c487 d33b c571 543c dd7f 45bd 1407 4b3d
000002c0: 1ae3 38bd b6bc c4bc 941d 97bd cef9 bebd
000002d0: 68ce a9bb 4277 e13c 8da3 1a3c 9943 a73d
000002e0: 69e8 f1bc 9961 97bc f8dc 27bc 420a 88bd
000002f0: 3233 883b bcbb 2fbd fd53 4cba ffd3 3b3d
00000300: d01e b53c 23ec 89bd feea 17bd 0912 b53b
00000310: c0f3 17bc 4edc 41bd c967 8ebd 080d e63d
00000320: 95a8 56bd e686 b7b9 137d c13c f8cb 9d3c
00000330: 7577 8dbc fdbb 233d 392f a8bc 91c0 a7bc
00000340: 3d93 94bd c954 89bd 99e4 3c3d 4b52 a83d
00000350: 198d 793d c6c2 50bd 3479 1d3d 0ffc e5bc
00000360: 4f5f 583d 7e52 633c 8f30 f43c 8120 8c3c
00000370: 18d0 50bc 899a 253c 829a 233d 6e97 6dbd
00000380: 7e8b 68bc 90c9 c7bc 9c70 b0bc 94d8 623d
00000390: 1d3d 4abc 7983 6f3d b6c9 a8bc 580a 0b3d
000003a0: b04b 0c3d abee 92bc 5bb2 4ebb 2d2f debc
000003b0: 859e ddbc a193 533d 5b34 483c d058 ac3c
000003c0: 520a d43c b644 333d 0ae0 3a3b ac5c 72bc
000003d0: 745a 75bd b164 f33c dda4 3ebd be91 d1bc
000003e0: 14af 4fbd 2fd2 103c baaf 963c 4ee9 b03c
000003f0: dfd8 9cbc 2eac 29bd 9e2d 1dbd 2cff 963c

bias f4 [256]
0.03188076 0.029080998 -0.05296046 0.02438984 0.048190963 0.04534505 -0.04092931 0.0726317
0.057327867 0.036334343 0.017896922 -0.050324205 -0.00504639 0.06868588 -0.0025882002 -0.041795284
0.033614 0.09629235 0.025410313 0.1164692 -0.0027307393 0.018640758 -0.01630477 0.07823224
-0.07705607 -0.057785027 0.0023253148 0.007869477 0.030612424 0.03487016 0.011947169 0.029580493
-0.035186715 0.007919234 0.10844033 -0.042592455 0.095932946 -0.090250134 -0.0033288808 -0.05607661
-0.061679106 -0.007912092 -0.0148973 -0.0381437 0.06686258 -0.012942642 0.018866058 0.024460215
0.12008483 0.0022652799 -0.0034511471 0.053008843 0.0768063 -0.0018334663 0.014896245 0.03642424
0.030338805 0.01921768 0.013460036 0.010617281 0.05510543 0.0745008 -0.08357786 0.034387358
0.01986239 -0.04661858 -0.047249008 -0.0068334867 0.06945492 0.064750224 0.03593371 0.031723086
0.055940192 0.071744375 -0.04910534 0.039994948 0.06532782 -0.05252884 0.078012146 0.014211407
0.029456308 0.030173928 0.084311426 0.06151269 -0.03901544 0.023513228 -0.037688732 -0.0072893966
0.03438747 -0.014361752 -0.059465416 -0.03658349 -0.050262403 -0.043902896 0.0064019086 0.00025747006
0.027373008 -0.021830842 -0.011456457 0.022352926 -0.054728795 -0.049418565 0.04763204 -0.014374479
-0.104783155 -0.08709648 -0.021296406 0.08736361 0.06599868 -0.02902675 0.08836677 0.0023463846
0.01492808 -0.057648 -0.035440385 0.066491246 -0.0012581624 0.04636258 0.08467983 0.033716254
0.076933585 0.07712856 0.045162145 -0.046487045 0.05135201 -0.062095806 -0.022831533 -0.0372421
-0.09927965 -0.018248014 0.028979726 0.13113302 0.073952824 -0.054126233 0.05107537 0.06981811
-0.016621722 0.037432853 -0.0049198177 0.018539028 0.0738189 0.038549643 0.03758346 -0.025495583
0.017155578 0.05512518 0.033366006 0.06360145 -0.03614728 0.08058193 -0.014328222 -0.047169995
-0.083322614 0.006580519 -0.010034905 0.08979581 0.016480023 -0.037349503 0.13331783 -0.06362337
0.008326209 -0.10075075 0.07268309 -0.027714957 -0.09284308 -0.012482066 0.047887005 0.024535006
0.003730077 -0.0016642798 0.009246608 -0.0052837757 0.070345975 0.096469045 0.0008837119 -0.011094762
-0.0071505196 0.06468241 -0.05024582 0.003776504 0.0406848 -0.023428751 -0.060318332 -0.075483896
0.027472306 0.122928195 0.029758118 0.025413604 0.010962208 0.03780503 -0.047023494 -0.042173702
-0.018141016 0.032900933 0.016888946 -0.040703103 -0.050263736 0.006979572 0.040929724 -0.0008642889
-0.045921836 -0.007241743 -0.0010708657 0.008434426 -0.04372671 -0.0023859465 -0.00038106035 -0.041111
0.032230675 0.01509661 -0.06257858 -0.061082315 0.040159076 0.03708514 -0.03793622 0.078883514
0.08752788 0.033277746 -0.01820598 -0.054815054 0.053086627 -0.031314816 0.00036382297 0.047330216
-0.015764065 0.051809322 0.12197278 0.019907195 -0.012895736 0.06965378 -0.017571501 0.039511215
0.082030885 0.04634199 0.020091234 -0.04244544 -0.0017792432 0.006021518 -0.06593852 -0.0019446488
0.051715933 0.08426688 -0.0042136135 -0.1017978 -0.045573775 0.021382932 0.024630008 0.02493417
-0.038959358 0.02285522 0.05670872 -0.06723756 0.07825251 -0.00434549 0.08676774 0.01507681
00000000: 6695 023d 463b ee3c 11ed 58bd 34cd c73c
00000010: e363 453d bbbb 393d 7ea5 27bd eebf 943d
00000020: a0d0 6a3d 52d3 143d 919c 923c c120 4ebd
00000030: 305c a5bb 2fab 8c3d cb9e 29bb 8831 2bbd
00000040: d5ae 093d ec34 c53d 4a29 d03c 6787 ee3d
00000050: 34f6 32bb 81b4 983c 9591 85bc 3a38 a03d
00000060: 93cf 9dbd feaf 6cbd 4f64 183b fbee 003c
00000070: e8c6 fa3c 03d4 0e3d 0fbe 433c ca52 f23c
00000080: f21f 10bd adbf 013c f715 de3d 6d75 2ebd
00000090: 7e78 c43d 10d5 b8bd 5a29 5abb 96b0 65bd
000000a0: 3ba3 7cbd b8a1 01bc ce13 74bc 923c 1cbd
000000b0: 40ef 883d 600d 54bc fe8c 9a3c ca60 c83c
000000c0: 09ef f53d 1775 143b a42c 62bb cd1f 593d
000000d0: 9f4c 9d3d ec50 f0ba 610f 743c 9531 153d
000000e0: 1689 f83c 656e 9d3c 7c87 5c3c 1bf4 2d3c
000000f0: 3bb6 613d e093 983d de2a abbd c2d9 0c3d
00000100: 73b6 a23c 20f3 3ebd 2d88 41bd 71eb dfbb
00000110: 623e 8e3d c49b 843d 3a2f 133d 11f0 013d
00000120: 8b21 653d b7ee 923d ae22 49bd bed1 233d
00000130: 98ca 853d 7b28 57bd d5c4 9f3d f6d6 683c
00000140: 5b4e f13c 502f f73c 78ab ac3d bbf4 7b3d
00000150: a7ce 1fbd d09e c03c 805f 1abd e4db eebb
00000160: e0d9 0c3d 8e4d 6bbc 0292 73bd 92d8 15bd
00000170: f3df 4dbd 86d3 33bd 1ac7 d13b 0cfd 8639
00000180: 5c3d e03c 98d6 b2bc ddb3 3bbc 7c1d b73c
00000190: 4d2b 60bd 1f6b 4abd d019 433d ef82 6bbc
000001a0: 8d98 d6bd a45f b2bd cd75 aebc b1eb b23d
000001b0: 512a 873d 82c9 edbc a3f9 b43d cdc5 193b
000001c0: e894 743c 4f20 6cbd f029 11bd 902c 883d
000001d0: ede8 a4ba b0e6 3d3d 9e6c ad3d 0e1a 0a3d
000001e0: 5b8f 9d3d 94f5 9d3d f1fb 383d 3369 3ebd
000001f0: 7c56 523d 2c58 7ebd 3209 bbbc 2c8b 18bd
00000200: 2153 cbbd dc7c 95bc e466 ed3c bc47 063e
00000210: 9474 973d 78b3 5dbd 6834 513d ccfc 8e3d
00000220: 472a 88bc 3153 193d 6c36 a1bb 29df 973c
00000230: 5d2e 973d 3be6 1d3d 1df1 193d 1ddc d0bc
00000240: db89 8c3c f1ca 613d cbaa 083d 7a41 823d
00000250: 2c0f 14bd 2408 a53d ebc0 6abc 5335 41bd
00000260: 0ca5 aabd 65a1 d73b 7169 24bc dee6 b73d
00000270: 1d01 873c cbfb 18bd 7884 083e f84c 82bd
00000280: a76a 083c 6956 cebd dfda 943d 7a0a e3bc
00000290: 8324 bebd 9481 4cbc 2a25 443d a3fd c83c
000002a0: 4f74 743b f723 daba 167f 173c 8623 adbb
000002b0: 8d11 903d 9091 c53d e7a8 673a cec6 35bc
000002c0: e84e eabb 3678 843d 90ce 4dbd 397f 773b
000002d0: 1ba5 263d a7ed bfbc 5b10 77bd 4d97 9abd
000002e0: 9a0d e13c c7c1 fb3d 4cc7 f33c 3130 d03c
000002f0: d59a 333c 72d9 1a3d b59b 40bd 55be 2cbd
00000300: 789c 94bc 21c3 063d b05a 8a3c 4cb8 26bd
00000310: 59e1 4dbd e5b4 e43b eda5 273d 7291 62ba
00000320: 8918 3cbd 254c edbb 4a5c 8cba 8c30 0a3c
00000330: c71a 33bd 8a5d 1cbb 0ec9 c7b9 0264 28bd
00000340: 5004 043d c657 773c 3329 80bd 7331 7abd
00000350: d87d 243d 96e6 173d 0363 1bbd ae8d a13d
00000360: d141 b33d 3f4e 083d b524 95bc c085 60bd
00000370: 5d71 593d f743 00bd 7ebf be39 54dd 413d
00000380: a423 81bc 0336 543d ddcc f93d 6a14 a33c
00000390: a348 53bc a4a6 8e3d 1cf2 8fbc 83d6 213d
000003a0: cfff a73d 19d1 3d3d 5f96 a43c 45db 2dbd
000003b0: 7f35 e9ba 2750 c53b c60a 87bd 96e3 feba
000003c0: 16d4 533d 1d94 ac3d 5a12 8abb 5d7b d0bd
000003d0: 91ab 3abd 422b af3c dfc4 c93c bf42 cc3c
000003e0: d993 1fbd df3a bb3c 6747 683d d9b3 89bd
000003f0: da42 a03d 9d64 8ebb 49b3 b13d b904 773c

weight f4 [5, 256]
-0.07460388 0.1199786 0.05166616 -0.120250694 -0.18015361 -0.03165883 -0.090016864 0.015544506
0.057886615 0.10979569 0.07240431 0.0952344 -0.08985289 -0.1292617 -0.16427559 -0.028141929
0.048032437 0.017589385 0.078321494 0.035786 -0.049169216 -0.15427127 0.059846256 0.06156177
-0.16053751 -0.12127589 0.046763606 -0.1680467 0.08699976 -0.043633565 -0.114328355 0.041834306
-0.11828952 -0.13426751 0.049595553 -0.001866815 0.073623545 0.08705754 0.06406531 -0.10490042
-0.11676235 -0.1644809 -0.023231594 -0.103979126 0.12466355 0.013559419 0.0120632425 -0.11747987
0.03963337 0.032162335 -0.10366254 -0.12624727 0.07767965 0.045768626 -0.13568541 0.05825523
0.06751489 0.060822535 -0.08443347 -0.008634187 -0.11141659 -0.07327982 -0.18711995 -0.14888951
0.08782259 0.05828848 0.022817563 0.060619738 0.044357758 0.07437451 0.040074598 0.08610905
-0.0062217806 -0.20291881 -0.014920243 -0.09244765 0.036926787 -0.11157314 0.10482488 -0.12904224
0.03787567 -0.042339176 -0.12295691 -0.09603814 -0.10634684 0.0007265827 0.05284496 -0.1548089
0.068013385 0.010804796 0.02751759 -0.17169379 -0.08763711 -0.13632606 0.1378893 -0.01759162
-0.08349349 -0.14896815 -0.035190865 0.0367906 -0.17918342 -0.14568485 0.06772711 0.09687663
-0.15839621 -0.123891085 -0.07620728 0.060268976 -0.09778488 -0.029184707 0.04947142 0.054987814
-0.0150398305 0.0479533 0.030209122 0.14252394 -0.15463647 0.11765984 0.036909062 -0.120120086
0.0841854 0.0061012506 0.0510874 0.0054231347 0.056235112 0.07035146 -0.13603519 0.00921252
-0.15192258 -0.018622084 -0.08404697 0.07162962 0.031902753 0.089651145 -0.15845819 -0.2030762
0.06997776 -0.01072109 -0.06930733 -0.08266192 0.034887794 -0.024887541 0.056596294 0.091715924
0.05972263 0.07401494 -0.069056876 0.09197559 -0.13563448 0.15699798 -0.16023584 -0.07536047
0.017647596 -0.12154051 -0.058817834 0.07295796 0.03111678 -0.04662681 0.079034954 -0.13987687
0.07974359 -0.16588281 -0.15180194 0.04254885 -0.06465189 0.04232202 0.0046309438 0.08021265
0.029525414 0.05571641 -0.030624341 -0.10024348 0.069168895 0.053069465 -0.04719711 -0.053887136
-0.18223724 0.09756243 8.2589046e-05 0.06804945 -0.1950602 -0.20015684 0.10290124 -0.1005549
0.10174475 0.057026464 0.033920784 0.038646746 -0.11033833 -0.081311315 0.07903431 -0.14450395
-0.00079342414 -0.09708242 0.1063874 -0.05046837 0.011436414 0.048391216 -0.102373295 0.106088005
-0.09365168 0.07252893 0.07255765 -0.16650268 -0.11950685 -0.1616258 -0.029605113 -0.08810015
0.022442523 -0.14135951 -0.042614844 -0.1441716 0.08040883 -0.06939288 -0.09846825 -0.0600048
-0.054529645 -0.066236645 -0.15938443 0.011888787 -0.18067792 -0.09025619 -0.01997775 -0.17521657
-0.1739412 0.05205727 0.036643874 -0.07173537 -0.16047147 0.11506108 -0.050506413 0.040877398
0.024170106 -0.12824504 0.03952962 -0.15889095 0.08452452 -0.08406177 0.052905772 0.12822597
-0.08461741 0.06870294 -0.038969453 -0.10570907 -0.14300469 -0.100563996 -0.104324125 0.07417083
-0.09939282 0.0505143 -0.21198463 -0.0796692 -0.07387399 0.012405647 0.0717055 0.013907366
00000000: ebc9 98bd 57b7 f53d e59f 533d ff45 f6bd
00000010: 307a 38be b0ac 01bd c35a b8bd 62ae 7e3c
00000020: 841a 6d3d 90dc e03d b648 943d 410a c33d
00000030: cb04 b8bd 2e5d 04be dc37 28be e789 e6bc
00000040: a9bd 443d 9d17 903c 0567 a03d 5794 123d
00000050: a965 49bd 4af9 1dbe 5921 753d 3228 7c3d
00000060: f263 24be 7e5f f8bd 328b 3f3d 6f14 2cbe
00000070: ee2c b23d 1cb9 32bd fc24 eabd 735a 2b3d
00000080: c741 f2bd 6c7d 09be b524 4b3d ebaf f4ba
00000090: f1c7 963d 394b b23d ac34 833d 08d6 d6bd
000000a0: 1921 efbd ae6d 28be 2f50 bebc 02f3 d4bd
000000b0: 9a4f ff3d 5328 5e3c e8a4 453c 4999 f0bd
000000c0: 9a56 223d a7bc 033d 074d d4bd f746 01be
000000d0: 8216 9f3d e277 3b3d 1ef1 0abe 099d 6e3d
000000e0: 3f45 8a3d 0d21 793d 75eb acbd 6876 0dbc
000000f0: 622e e4bd bb13 96bd 5f9c 3fbe 7e76 18be
00000100: 54dc b33d e7bf 6e3d e6eb ba3c 674c 783d
00000110: 7bb0 353d aa51 983d 4325 243d f159 b03d
00000120: 14e0 cbbb f3c9 4fbe 0974 74bc 3255 bdbd
00000130: 8b40 173d 7580 e4bd 6dae d63d a623 04be
00000140: 8523 1b3d d86b 2dbd d5d0 fbbd a5af c4bd
00000150: 5fcc d9bd 2478 3e3a f573 583d 3986 1ebe
00000160: 9a4a 8b3d 9906 313c 926c e13c 7fd0 2fbe
00000170: 167b b3bd 0f99 0bbe da32 0d3e 4d1c 90bc
00000180: a3fe aabd 1b8b 18be 4c24 10bd bdb1 163d
00000190: dc7b 37be 692e 15be 83b4 8a3d 4167 c63d
000001a0: 9e32 22be 9cba fdbd 9012 9cbd 9adc 763d
000001b0: 7043 c8bd c414 efbc 8ba2 4a3d e73a 613d
000001c0: 9f69 76bc ae6a 443d 1f79 f73c ccf1 113e
000001d0: 0659 1ebe a4f7 f03d f52d 173d 8501 f6bd
000001e0: 6569 ac3d 00ed c73b 0641 513d 8db4 b13b
000001f0: ca56 663d 6d14 903d cf4c 0bbe 1cf0 163c
00000200: 9891 1bbe 578d 98bc d120 acbd 8db2 923d
00000210: 76ac 023d 059b b73d dd42 22be 35f3 4fbe
00000220: 8050 8f3d 83a7 2fbc 00f1 8dbd a74a a9bd
00000230: 81e6 0e3d f5e0 cbbc 84d1 673d 8fd5 bb3d
00000240: b79f 743d 2595 973d b16d 8dbd b35d bc3d
00000250: c4e3 0abe 14c4 203e dd14 24be 9756 9abd
00000260: b191 903c 3bea f8bd f8ea 70bd fc6a 953d
00000270: 9ee8 fe3c c1fb 3ebd 14dd a13d e23b 0fbe
00000280: 9b50 a33d 2fdd 29be f871 1bbe b447 2e3d
00000290: 3668 84bd db59 2d3d 2cbf 973b 8846 a43d
000002a0: 48df f13c e436 643d e6df fabc 744c cdbd
000002b0: 6ca8 8d3d 5e5f 593d c251 41bd c2b8 5cbd
000002c0: 669c 3abe d0ce c73d a833 ad38 835d 8b3d
000002d0: dcbd 47be eaf5 4cbe e3bd d23d baef cdbd
000002e0: 8d5f d03d 9594 693d 85f0 0a3d 0d4c 1e3d
000002f0: 10f9 e1bd 8c86 a6bd bedc a13d d8f8 13be
00000300: cbfd 4fba 26d3 c6bd a3e1 d93d ecb7 4ebd
00000310: cc5f 3b3c de35 463d 17a9 d1bd ab44 d93d
00000320: 74cc bfbd 0c8a 943d 1b99 943d ae7f 2abe
00000330: 02c0 f4bd 3c81 25be 6c86 f2bc da6d b4bd
00000340: 62d9 b73c 8cc0 10be e78c 2ebd b8a1 13be
00000350: 62ad a43d db1d 8ebd b9a9 c9bd 98c7 75bd
00000360: 7a5a 5fbd 14a7 87bd ac35 23be 30c9 423c
00000370: a203 39be 3dd8 b8bd 61a8 a3bc f96b 33be
00000380: a41d 32be 013a 553d e317 163d fee9 92bd
00000390: a252 24be 25a5 eb3d d0df 4ebd 0f6f 273d
000003a0: 6300 c63c ab52 03be d0e9 213d 4fb4 22be
000003b0: 311b ad3d 9428 acbd b9b3 583d ab4d 033e
000003c0: e54b adbd 21b4 8c3d 6f9e 1fbd ff7d d8bd
000003d0: d26f 12be 7ff4 cdbd e3a7 d5bd e0e6 973d
000003e0: 768e cbbd 15e8 4e3d 8012 59be 9b29 a3bd
000003f0: 3f4b 97bd 0e41 4b3c 55da 923d b9db 633c

bias f4 [5]
0.0055660717 -0.027824346 -0.0026837427 -0.08881737 0.08055207
00000000: 9863 b63b e2ef e3bc bbe1 2fbb e2e5 b5bd
00000010: 7cf8 a43d
