models/task1_cnn.pth (torch, 526899 bytes, 11 tensors)

weight f4 [16, 1, 3, 3]
00000000: 0424 fe3c 9bed 43be cca0 013e 55f1 0c3d
00000010: 10b6 c0be 1eb0 1d3e 6eb8 a33e bf90 5b3e
00000020: fbef 043d 9745 203e 054c e73d 2fd8 9e3b
00000030: 2101 2d3d d75f 2b3e fafd 0dbe 430a 0b3e
00000040: 0694 4c3e ec14 b1be 7d40 953e 642a 8abe
00000050: 972f 3d3e cf33 8d3d 4b41 2d3e 46c7 923e
00000060: 6197 4cbe e5cd 74be 5ce7 22be f7db af3e
00000070: 6c3a 6ebe 9675 9b3e 3ed0 b43c f347 42be
00000080: bf4a 003d d8d2 99be c519 a2be 6d55 fabb
00000090: 48c2 65bd 4914 c93c 7f21 adbe 9784 873d
000000a0: 8e30 82bc 26bf 31be b658 653e 4956 c03e
000000b0: baf0 20bc 140f 1e3d 9acd 7ebd adce 843e
000000c0: 5336 2f3d ffe0 793e 6cbe 033d 1024 9dbe
000000d0: 3f26 4cbd a2ee 14be d84f 70be 80f1 143d
000000e0: 5a1d 9bbe 17a4 89be 1037 fbbd 1092 dabd
000000f0: 7815 79bd 7355 14be c352 60be fce2 923e
00000100: 2e40 69be 7b7a 7c3d a224 893e d92f 92be
00000110: a531 9a3e 91dd 0bbe 249d 373e e79d ab3c
00000120: d7ed 28be 31dd ffbc 54a2 833e fce1 73be
00000130: 31b6 7c3e 6c46 7b3e abf9 0f3e 235a 4f3e
00000140: b688 2b3d 61c6 a43d 2139 42be 1685 a1be
00000150: e1c2 52bd c308 07be ef61 8a3e 7f17 51be
00000160: c4de c73d 70e3 b2bc 2667 73be 45a4 9d3e
00000170: 8209 383e 7586 593e d40b 5f3e 2862 fbbd
00000180: 2de7 a8bd 7219 b2be 50d0 51be 0bdd 80be
00000190: a3c1 4abe fa5e d63e 1099 0cbe ee3b 88be
000001a0: 5206 1b3e 5010 743d 8cc3 74bd be0c a6bd
000001b0: f452 513c 8fae 5abe 64c7 1bbd 96b0 163d
000001c0: 0a82 fdbc bc3b 813e f3a7 9cbd 3f70 853e
000001d0: 6e00 303d b5e6 4abe d127 953e 9eb1 8a3e
000001e0: bb7b abbe 657f b0be 883b 413d f5ec 54be
000001f0: 72af 853e bb18 0a3d ad45 8bbe 5349 7fbd
00000200: 5c92 403d dbf5 8ebd e283 5e3d c2c3 a03e
00000210: 8371 8e3d df79 ccbd 0f25 eabd 9767 003d
00000220: 43f3 f83d 85b7 f53d 2474 313e 9e21 96bc
00000230: 1379 243d 72db 2d3e 3c67 81be 4c04 89bd
0.031023033 -0.19133608 0.12658995 0.03440984 -0.37638903 0.15399215 0.31976646 0.21441935
0.032455426 0.15651546 0.112937964 0.0048475484 0.042237405 0.16735779 -0.13866416 0.13578133
0.19978341 -0.34586275 0.29150763 -0.26985466 0.18475185 0.06894647 0.16919439 0.2866766
-0.19979621 -0.23906668 -0.15908569 0.34347507 -0.23264474 0.30363148 0.022071954 -0.18972759
0.031321283 -0.30043674 -0.31660286 -0.007639578 -0.056093484 0.024545806 -0.33814618 0.066170864
-0.015892293 -0.17358074 0.22397122 0.3756583 -0.009823019 0.0385886 -0.062207796 0.2593893
0.042776417 0.24402235 0.032164022 -0.30691576 -0.04984116 -0.14544156 -0.23467958 0.036363125
-0.3029583 -0.26883003 -0.12266362 -0.106723905 -0.06081149 -0.14485721 -0.21906571 0.286888
-0.22778389 0.061640244 0.2678576 -0.2855213 0.30116 -0.1365874 0.17931038 0.020949317
-0.16496979 -0.031233402 0.25709784 -0.23816675 0.24678876 0.24538583 0.14060085 0.20249228
0.041878425 0.0804565 -0.18967105 -0.3154685 -0.051455382 -0.13186936 0.27027842 -0.2041912
0.09759286 -0.021836966 -0.23769817 0.3078939 0.17972377 0.21242698 0.21781856 -0.12274581
-0.08247218 -0.34785038 -0.20489621 -0.25168642 -0.19800429 0.41869336 -0.13730264 -0.26608223
0.1513913 0.05958587 -0.0597568 -0.08107899 0.012776125 -0.21355651 -0.03803195 0.0367895
-0.030945797 0.25240886 -0.07649221 0.260622 0.04296916 -0.1981457 0.2913194 0.27088636
-0.33492836 -0.34472194 0.047175914 -0.20793517 0.26110417 0.03371499 -0.27201596 -0.062325787
0.04701458 -0.06980487 0.054324992 0.3139935 0.069552444 -0.099841826 -0.114328496 0.03134879
0.121557735 0.11997894 0.1732946 -0.018326577 0.040154528 0.16978243 -0.25274074 -0.06690273

bias f4 [16]
00000000: 1aee 86bd f776 17be 13b0 d9bb 06a4 563e
00000010: e233 63be ebdc ed3a f64b 66be 2aca 103e
00000020: 83f3 90be 2e9c 913e 5763 3c3d baad 233e
00000030: 0a3e 403e 0701 1e3e 445c 523d 77b6 94bc
-0.06588383 -0.14791475 -0.006643304 0.20961007 -0.2218776 0.0018147504 -0.22489914 0.1413962
-0.28310785 0.28439468 0.045993175 0.1598424 0.18773666 0.1543008 0.051357523 -0.018153412

weight f4 [32, 16, 3, 3]
00000000: 7ce6 3ebc 5826 84bd ce2e 513a 077f 323d
00000010: 80b4 703d dadd 283d 8d52 d73c 3dcc 2a3d
00000020: 757c 773d c8ed b4bd 5405 b43c 76cd 283d
00000030: e07d a3bd f6a4 8d3c eea5 563c 5a77 8dbd
00000040: 0738 87bd 0e77 0bbd d71b e5bc c22a 3f3d
00000050: f358 3dbb 7c09 2cbd 8e3c d63d 1b31 e8ba
00000060: 6cfd 123d 8066 97bd 517c 85bd b611 2bbd
00000070: bfaf 0bbe 90fa 4ebd 2355 0dbd e5b7 89bd
00000080: feb2 c4bd ac88 c8bd 046a 1bbd e4d2 b2bc
00000090: 4c07 a53c 427a cd3d bd7f 063d 6e82 46be
000000a0: 5e10 69bc 1612 34bc e4ee 94bd 9074 573c
000000b0: 64bb 2a3c bd43 1abd 1587 55bd e0bc eabd
000000c0: d8c3 e63d c00f cbbc fa54 1f3d 8dd1 533c
000000d0: 3ae8 bc3c 07ad e93c 9ba5 9abd 10eb c13b
000000e0: 5636 dcbc fcdb 9bbd b821 11bd 0c99 ef3c
000000f0: 604c 01bb a0b8 403b 3660 153d 27ee a53d
00000100: cbd2 fcbc 9edb 3fbc aeaf 14bd f518 8bbd
00000110: e876 72bc 02b0 9c3c 7512 1d3c 70b7 8f3d
00000120: 37a7 a53d 0c93 26bd 4261 85bd 81bf 443d
00000130: 131d f93c bcc3 983c 2e76 cbbc d71b 233d
00000140: 54a6 513d 376a 043d a23c e1bb cbb7 4e3d
00000150: b0de 90bd 474f 793c f070 b2bd 640b b53d
00000160: 3547 823c 7416 743d ad1b 903c c923 2ebd
00000170: 2db2 e4bd e38f 40bd 798a 193d b08a 373d
00000180: a6df 573d c98d 04be 8d08 8abc 2cc7 0abd
00000190: d8d6 87bc d057 dbbd 2e2c 0b3d ab68 0bbd
000001a0: 80e4 e5bc 1548 853d 7f49 183d cb2a bebd
000001b0: da22 4bbd 6eff 36bc 7505 0e3d 91d1 7a3d
000001c0: ed77 a2bd 0ced 6ebb f0a5 2cbd 5ddc 55bd
000001d0: 933f 023d b0f2 8fbc 66b8 27be e09d 08be
000001e0: 6ab5 5bbb a34a 2dbd 2bc6 2dbc 4aaf fc3d
000001f0: 6bd0 67bd df85 233d 4923 31bc 3ddf 683d
00000200: c2a4 fcbc a6f6 773d 220c aebd 2039 49bd
00000210: cece e13d fe49 2abd 2af0 87bc 40ca 843d
00000220: fb78 e43b 0208 c4bd a0b8 ea3b 46eb d03c
00000230: b5bc a9bb 8a1d 54bc ae51 c1bc fba1 e0bc
00000240: 9d26 4bbd 9b61 29bc 70c5 853d c6c1 0bbd
00000250: 3dd5 363d f7a3 c9bc 9b7e 893d db6a 943d
00000260: 53d4 593d 4d96 c6bd 1d71 edbd 5c7e 06bd
00000270: 10e2 89bd 1309 6bbd 15c6 de3d 324f 83bd
00000280: 276f 7f3b f176 d53d ab32 16be f050 06be
00000290: a149 03be 6670 dbbd 9436 9b3c 461a 42bd
000002a0: 0319 64ba b2c4 bb3c 4509 3b3d e0d8 0e3d
000002b0: 9e56 ab3c 6e70 fabd 2657 57bd 6e2f f8bd
000002c0: c7d6 00be c0e2 fabd fed7 85bc b8db 1fbd
000002d0: 603f 12be 2b11 36bd 4bed dd3c 034c 3fbe
000002e0: beff 86bd 1860 493d ac81 adbd 4038 ecbd
000002f0: 6cc8 bc3d 0753 d0bd 3c6f 4cbe ea1b 7ebd
00000300: 2dae 90bd f6f1 e2bd 4c1d a9bd 289c 0abd
00000310: 9794 93bd ff05 31bc f3dd 96bd 7b2e 63bd
00000320: d20c 8bbd 50a1 96bc c01a 20bc a4a8 9fbd
00000330: 1623 01bd 20c4 933c 9536 933d a89d c5bd
00000340: 057e 063c a33e aa3c 936e 493d dc50 7f3d
00000350: fe23 b2bd 0195 823d 7b1b 573c 8c76 9b3d
00000360: c497 75bc b974 723b 93cb 053c 9c41 383d
00000370: f5ff 2fbd 0564 0f3d 1ccb ae3d eb08 06be
00000380: 9f94 1a3d ee71 9a3c 7233 053e de03 e13d
00000390: ff3d 7b3d 1081 c83c a539 88bc 3c4b 84bc
000003a0: 7694 2cbc 9d08 e6bc b286 8fbc 95fa a5bc
000003b0: 8ca5 15bd 56b7 84bd 7567 83bd 2435 5f3d
000003c0: e43a af3d 9fec 043d 8008 c83c 6249 f13c
000003d0: 56a5 1e3c c4ef 3c3c d95e c13c efa1 e2bc
000003e0: d2cb fabc 74f3 9cbd e7bb 7bbd 4efb 283d
000003f0: e149 62bc 5e2a ba3c 7bfe ad3c d45f e2bc
-0.011651631 -0.06452626 0.0007979692 0.043578174 0.05876589 0.0412272 0.02628448 0.041698683
0.060421426 -0.08834416 0.021975197 0.041211568 -0.07982993 0.017290574 0.013101084 -0.0690753
-0.06602483 -0.034049086 -0.027967377 0.046671636 -0.002889213 -0.042001233 0.10460769 -0.001771483
0.035886213 -0.07392597 -0.06517852 -0.041764937 -0.1364126 -0.050531924 -0.03450502 -0.06724528
-0.096044526 -0.09791693 -0.0379429 -0.021829076 0.020145081 0.100330845 0.032836664 -0.19385692
-0.014225094 -0.01099064 -0.07272127 0.013150349 0.010420654 -0.037662257 -0.052130777 -0.11461806
0.11267823 -0.024787784 0.0388994 0.012928379 0.023059953 0.028524889 -0.07551118 0.005917914
-0.026881378 -0.07610318 -0.035432547 0.029247783 -0.001972936 0.002940692 0.036468707 0.081020646
-0.030862233 -0.011710076 -0.036300354 -0.067918696 -0.014798857 0.019126896 0.00958692 0.0701741
0.08088534 -0.04066758 -0.06512691 0.048034195 0.030409371 0.01864802 -0.024836626 0.039821472
0.051184013 0.032327857 -0.006873683 0.050468247 -0.07073724 0.015216655 -0.08712947 0.08840063
0.015903095 0.059591725 0.017591322 -0.042514596 -0.11166797 -0.04701222 0.037485573 0.044809997
0.052703522 -0.12944712 -0.01684978 -0.03388135 -0.016581938 -0.10710108 0.03397768 -0.034035366
-0.028063059 0.06507889 0.037179466 -0.09285506 -0.049593784 -0.011169298 0.034673173 0.061235014
-0.0793303 -0.003645721 -0.042150438 -0.052212108 0.03179891 -0.017571777 -0.16378936 -0.13341475
-0.003352488 -0.042307507 -0.010606329 0.12338121 -0.056595247 0.03992259 -0.010811635 0.05685352
-0.030840281 0.060537957 -0.08498408 -0.049126744 0.11025773 -0.04157447 -0.016594011 0.064838886
0.00697243 -0.0957184 0.0071631223 0.025502812 -0.0051799663 -0.012946496 -0.023598518 -0.027420988
-0.04959737 -0.010338212 0.06531799 -0.034120344 0.044636954 -0.024614317 0.06713601 0.072469436
0.053181004 -0.09696636 -0.1159384 -0.03283535 -0.06732571 -0.0573817 0.10877625 -0.0641159
0.0038976164 0.10423077 -0.14667766 -0.13116813 -0.12821056 -0.10714798 0.018946923 -0.047388338
-0.0008701237 0.02292094 0.045663137 0.034874797 0.020915326 -0.122284755 -0.052573346 -0.121184215
-0.12581931 -0.122502804 -0.016338345 -0.0390279 -0.14281988 -0.044449966 0.02709069 -0.1868134
-0.06591748 0.049163908 -0.084719986 -0.11534166 0.09217915 -0.10172086 -0.19964308 -0.06203834
-0.070644714 -0.11081307 -0.08257541 -0.03384033 -0.07206076 -0.010804652 -0.07366552 -0.05546425
-0.06789555 -0.018387467 -0.009772003 -0.077958375 -0.0315276 0.018037856 0.07188145 -0.09649211
0.008208756 0.02078182 0.049177717 0.062332973 -0.08698271 0.063760765 0.01312911 0.075909704
-0.014989797 0.0036995842 0.008166212 0.044984445 -0.04296871 0.035007495 0.08534834 -0.1308934
0.037739392 0.018853154 0.13007906 0.10987066 0.06133842 0.024475604 -0.01662905 -0.016149156
-0.010533443 -0.028080279 -0.017520282 -0.020261088 -0.03653483 -0.06480281 -0.06416217 0.05449404
0.08556154 0.032452222 0.024418116 0.029453937 0.009682974 0.011531774 0.023604797 -0.027665107
-0.030614767 -0.076636225 -0.061458495 0.041255288 -0.013811559 0.02272528 0.02123951 -0.027633585

bias f4 [32]
00000000: 5816 953d d3ff 803d 67e9 183d 37fe 513d
00000010: 7206 6c3d 1734 9cbd 17c4 a1bd 7cc9 15bd
00000020: c707 7dbd 05ab 91bd 082d 3c3d fe97 85bd
00000030: 9f7b 813c e63b 1ebd 2689 593d d9fe 803d
00000040: 1b8c 24bc 8e27 083d e9ea 7dbc 8c0a 513d
00000050: 776e 95bd f543 323d 6249 d93b 6a6a 353d
00000060: 89c5 21bd 654b 153d 5747 27bd 01c7 a03c
00000070: 42ac e83c 0d75 29bd a8df 91bc b6fa 673d
0.07279652 0.062987946 0.037331965 0.05126783 0.057623334 -0.07627123 -0.07898729 -0.036569104
-0.061774995 -0.071126975 0.045941383 -0.06523131 0.015806017 -0.038631342 0.05310931 0.06298608
-0.010043169 0.033240847 -0.0154979015 0.05103545 -0.0729646 0.04352184 0.0066310624 0.044290937
-0.039495025 0.036448855 -0.04083952 0.019626142 0.028402451 -0.041371394 -0.017806843 0.05663558

weight f4 [64, 32, 3, 3]
00000000: de61 edbd 5f75 08be 93ae 30bd 523d 2c3d
00000010: 5584 893d c76c 1bbb bf46 70bd 5ea6 59bd
00000020: a9de 833d 5763 c1bb 6a67 8ebd 8ade aa3b
00000030: 4859 443d 3060 61bb 9622 a33d 41b7 ca3b
00000040: 93f0 2d3d 6680 f5bc 15ca 083c 97c8 a33c
00000050: 75e5 7f3c 6470 0abe 7621 ccbd a161 37bd
00000060: 623f e739 3f6f 0ebd 1212 a3bd 5c81 f8bc
00000070: ff12 f7ba cb8c 76bd ec11 023d b321 083d
00000080: bf5d 2bbb f3f9 4dbd 369a bdbd e9b8 d4bc
00000090: b1ab 843d bc0f 5e3d 256f e73d ee66 513d
000000a0: a910 5e3d ff29 3cbd 98c3 733d d606 4c3d
000000b0: 5373 3fbb 837b a0bc e2f4 a33b c47a 55bd
000000c0: 646e 32bb 49a3 33bc a67f 033d 449d 8abd
000000d0: 02a7 5cbd 4472 87bd 6025 2bbd 5311 f63c
000000e0: 006c d93c f69a b23d f921 e13c 3cad 863d
000000f0: dde9 3b3d 55a2 a13c 8177 323c 6aec 763d
00000100: 4dae eb3c bec0 c43c ace2 b4bc b080 ccbc
00000110: 5388 583d 61ff dd3c 9c2e 26bd 9a18 66bd
00000120: 1b7d 64bd 9c5c 833d aecb b8ba ae02 083c
00000130: 8abd 5d3d 1012 243d 2897 453c 0e20 053d
00000140: 91d3 4abc f035 2e3d ae61 a23c fe4b 093b
00000150: 320e 58bd 1894 a7bd 35dd 8b3c bd40 e23c
00000160: 870e c4bc b898 263c 9abe fe3b eeaa 12bc
00000170: 7873 883d 01be 84bc d1b5 193d 3e86 02bc
00000180: c5f3 68bd 7c2b 123d 019d 243d ccf0 48bd
00000190: 9366 43bd 1d8a 143c b25f 32bd 36af efbb
000001a0: 976d 5c3d 7d7a a5bd a389 87bd 1042 26bc
000001b0: 114d 1cbe e087 b4bd ec6c 13be 005f 973d
000001c0: 2feb 843c 271c ee3c d629 49bd 46a0 0e3d
000001d0: d668 233d 63ff ba3d 94e0 4c3d 3fac d93a
000001e0: 0964 f53c 483c 79bd 76c3 11bd f553 883c
000001f0: cabe febc ef57 273d 6895 08be b92f 5dbe
00000200: ada8 4abd 1097 3dbc be76 cc3c ef33 9f3c
00000210: 762b c7bd 0875 e5bd cd3c 14be 94d4 b93d
00000220: babf 15bd f354 9d3d 754b 84bd 6005 c83b
00000230: a76d b4bd 2a85 393c f6cb f5bb 9165 ce3c
00000240: 4e05 50bd bd96 93bd f8f7 bcbd 4526 043d
00000250: 321b 863d 9943 2d3d 44f0 c4bd 5f39 013d
00000260: 5212 28bd 656a 8ebd 8e8e 14be a061 eebd
00000270: 51a7 ba3d c1a9 d53c 9975 873d f76e 77bd
00000280: cd09 303d 1103 1e3d 55c2 f83b 5e43 2bbd
00000290: 916f febc 37fc c73d 7447 d8bc cbaa 173d
000002a0: cb35 653d 0c69 0b3d 35b7 0abd 879f 80bd
000002b0: 1d06 6cbb 3902 2ebd 2ef6 ab3c 6e52 37bc
000002c0: 4b44 733d dca1 68bd 7783 66bd 16d8 99bc
000002d0: da14 cdbd 7d07 dcbd 9d56 a6bc 6717 193d
000002e0: 4e8f 363d 3aa7 223d eb5d 683b 1121 35bd
000002f0: b677 4dbd daba 0b3d 8ea6 e33b 852f f7bb
00000300: f160 b0bd 89f9 06bd d71f 883b 775a e6bc
00000310: 6b85 22bd aecf b9bc 379a 003d 23ee c3bd
00000320: 3754 13bd 7ae8 86bc 5af3 913d 6401 923d
00000330: 8d50 03bc 59a6 2dbd 06f2 a73b 7cd2 873b
00000340: 1866 3fbd 4555 07be 5c00 10bd 39a4 3dbd
00000350: ef77 103d 5908 2e3d 9381 acbc e43a 533d
00000360: f37c 69bd bc2b f13c 42f7 853c 9947 223d
00000370: f1eb 5f3c a50e d63c 2b01 7e3c 02cf bcbd
00000380: e004 0e3c e886 dcbd cc6c 1fbe ffac debd
00000390: 7a84 9b3c d726 f5bc bb81 de3b c6ca 8c3c
000003a0: 63f5 77ba b302 e03c 00ad 75bd 8503 683a
000003b0: 652d 83bc 6e19 8b3d b437 9b3c a471 54bc
000003c0: 7842 16bd 51a9 7f3b 4b13 26bd d043 88bd
000003d0: 7e5d 1ebe 3577 b1bd 567c a73c f8a9 603d
000003e0: 3d43 3c3d 5e0e 3a3d af97 593d 29ab 55bd
000003f0: d76d a0bc 5ab3 d43b 04d6 01bd aba2 fc3b
-0.11590932 -0.13326024 -0.043135237 0.042050667 0.067146935 -0.002371596 -0.05866122 -0.053137176
0.064389534 -0.005901735 -0.069533184 0.005214517 0.047936708 -0.0034389608 0.07965581 0.0061863963
0.042465758 -0.029968452 0.008348961 0.01999311 0.015618672 -0.13519436 -0.0996732 -0.04477084
0.00044106977 -0.03477406 -0.07962431 -0.03033512 -0.0018850266 -0.060192864 0.031755373 0.033235263
-0.0026148406 -0.0502872 -0.09257929 -0.025967078 0.0647806 0.054214224 0.11300496 0.051123552
0.054215107 -0.045938488 0.059512705 0.049811207 -0.0029213026 -0.019590145 0.0050035575 -0.05211903
-0.0027226442 -0.010964223 0.032104157 -0.06768277 -0.05387021 -0.06613591 -0.04178369 0.030037558
0.026540756 0.08720963 0.02748202 0.065760106 0.045877326 0.019730726 0.01089275 0.060284056
0.028769637 0.024017688 -0.022080742 -0.024963707 0.052864384 0.027099313 -0.040571794 -0.056175806
-0.055783372 0.06414148 -0.0014098787 0.00830142 0.054135837 0.04005629 0.012059964 0.032501273
-0.012379543 0.042531908 0.019821968 0.0020949836 -0.052747913 -0.081825435 0.017073253 0.02761876
-0.023932708 0.010168247 0.0077741863 -0.008951886 0.06662649 -0.016203882 0.03752691 -0.007966576
-0.0568731 0.035686 0.040188793 -0.049057767 -0.047705244 0.009066132 -0.043548293 -0.007314588
0.05381545 -0.080800034 -0.06618049 -0.010147586 -0.15263774 -0.088149786 -0.14397019 0.07391167
0.016225426 0.029066158 -0.049112163 0.034820817 0.0398949 0.091307424 0.050018862 0.001660712
0.029954927 -0.060848504 -0.035586797 0.016641596 -0.031096835 0.040855344 -0.13338244 -0.21600236
-0.049477268 -0.011571661 0.024958964 0.019433944 -0.097250864 -0.112039626 -0.14476319 0.09073749
-0.036559798 0.076822184 -0.06459705 0.0061041564 -0.08809977 0.011323253 -0.0075011207 0.025194915
-0.05078631 -0.072064854 -0.09226984 0.03226306 0.06548156 0.042300794 -0.096161395 0.031548854
-0.041033097 -0.06953887 -0.14507505 -0.11639714 0.09113944 0.026081922 0.06614227 -0.06040856
0.042978097 0.038577143 0.0075915256 -0.041812293 -0.031059058 0.09764903 -0.026401259 0.037028115
0.055959504 0.034035727 -0.033866126 -0.062804274 -0.0036014386 -0.04248259 0.020991411 -0.011189086
0.0593913 -0.056794986 -0.05627772 -0.018779796 -0.10013743 -0.10743616 -0.020304972 0.037375834
0.04457026 0.03971026 0.003545637 -0.044220988 -0.050162993 0.034113742 0.006947345 -0.0075435066
-0.0861224 -0.03295282 0.004154186 -0.028119309 -0.03967802 -0.022682037 0.03139707 -0.09566905
-0.035968985 -0.016468275 0.07126494 0.071291715 -0.00801481 -0.04239497 0.005125287 0.0041449647
-0.046728224 -0.13216121 -0.035156593 -0.046299193 0.035270628 0.04248843 -0.02105788 0.051569834
-0.057003926 0.0294398 0.016353253 0.039619062 0.013667093 0.02613003 0.015503208 -0.09219171
0.0086681545 -0.10767919 -0.15568846 -0.1087284 0.018984068 -0.029925747 0.0067903674 0.017186534
-0.0009458868 0.027345037 -0.05997944 0.0008850622 -0.016012857 0.0679196 0.01894746 -0.012966547
-0.036684483 0.0039010833 -0.040545743 -0.06653559 -0.15465352 -0.08665315 0.02044503 0.054849595
0.04596256 0.045423858 0.053123172 -0.052165184 -0.019583626 0.006491107 -0.03169824 0.007709821

bias f4 [64]
00000000: cc58 a4bc 8346 fe39 e7c3 0a3b 4a81 89bc
00000010: dcd6 9a3b 37a5 013d 4127 06bd 699e e6bc
00000020: 29a0 943d 563f 6a3d fc93 f33b 38e3 683d
00000030: 2a74 803d dc72 253d 0451 803d 94e6 fbbc
00000040: 0a29 933d 56fe 58bd affd 043c a57d 9ebc
00000050: 40fe 1dbb 4217 873d a250 a43d 68b0 b03a
00000060: 2b57 163d 2696 753b 2549 013d 1e55 da3a
00000070: fed2 5cbd f2a2 84bd 141e 3bbc e9d3 1a3d
00000080: 0a91 723d d403 043d b159 983c a287 203c
00000090: afe7 23bd 89be 6bbc fe66 673c 8a40 1dbd
000000a0: 64fa 2cbd 0a54 4b3d 0639 803d a876 b63c
000000b0: e898 a1bc a854 b8bc 4a86 673c 1b48 9e3d
000000c0: 2560 8d3d f438 b5bc b61c c2bc d3bf e2bb
000000d0: 8b23 bfbb 773a 4d3d ab14 31bd 1474 a03c
000000e0: 5744 9fbc 5661 893d 2e4e 85bc 3865 25bc
000000f0: 06fc a13c 57ed 963d 2472 20bd 6167 733d
-0.020061873 0.0004849919 0.0021173896 -0.016785283 0.0047253203 0.0316517 -0.03275228 -0.028151708
0.072571106 0.057189308 0.0074334126 0.056857318 0.062721565 0.04039274 0.062654525 -0.030749597
0.07185562 -0.05297693 0.0081171235 -0.019347021 -0.0024107844 0.06596233 0.08023192 0.0013480308
0.036704224 0.0037473529 0.031563897 0.0016657447 -0.053912155 -0.06476392 -0.011420745 0.03779975
0.05922035 0.032230213 0.018597456 0.009797962 -0.040015873 -0.014388689 0.014123676 -0.038391627
-0.04223098 0.049640693 0.06260876 0.022273377 -0.019726232 -0.022501305 0.014131138 0.07728597
0.06903104 -0.022121884 -0.023695331 -0.00691984 -0.0058330945 0.050104585 -0.0432326 0.0195866
-0.019441767 0.067080185 -0.01627263 -0.010094933 0.019773494 0.07369488 -0.039171353 0.05942476

weight f4 [64, 64, 3, 3]
00000000: 3278 a93d cab2 a43d 7f21 8c3d 1d36 883c
00000010: bd65 02bd 3293 083d 4b36 31bd 0e1d dc3b
00000020: 4192 cd3c 09c9 13bc 25a3 dc3c afcc 333d
00000030: aa4e 4ebb 65c0 b1bc eaec d53b 8c62 653a
00000040: 5f21 6ebd 2bd1 373d ce8b d13d 6dd5 bc3b
00000050: 70fb 16bc 625e 94bd f2f2 89bd 6a46 3fbd
00000060: da15 953b 8204 cebb 75c4 c23c 8334 1d3d
00000070: 116b cdbb f7d7 883d b31e 19bd 8be9 d4bd
00000080: 6356 0abd 0874 8ebc d180 63b9 3356 dc3c
00000090: 2b51 9bbb 8527 3a3c e319 dd3c f013 3bbd
000000a0: f105 62bc 2fe1 47bd d060 e9bc 6e13 77bd
000000b0: 858b 46bd c312 93bc 34a6 d9bc 4754 52bd
000000c0: 72dd 1b3d 6187 46bd b340 72bd 4d4b 203d
000000d0: cd1b 3c3b 8b90 413d 2937 533d a174 7d3d
000000e0: 2b90 f13b 4da0 0dbd 37a1 03be f528 72bd
000000f0: 231f 6abb 63e4 e3bd 1f3e edbd 504e 0f3c
00000100: 9394 e33d 0972 303d 7162 ea3a 44b8 913c
00000110: fe9e 4cbd 79d4 55bd d155 963c b4c2 f2bc
00000120: 5079 ccbb 15ca a13c 6937 9e3c 62ae 693d
00000130: c843 87bc b2c5 8cbb d1bd 31bd f36b 3fbc
00000140: a561 36bd 4a15 523d 4620 863d 71b4 733d
00000150: 471d 11bc 8859 39bc 1331 57bd f570 5f3d
00000160: 1d96 e23d afff 5c3d dd64 9b3c 0e0a 453c
00000170: 935e 093d 24f1 74bc 5602 f3bc b2df 87bd
00000180: 71da 1bbd d204 a83c 5245 983c dfe9 b43b
00000190: 4fb3 c0ba 74c4 f73c a24e 573d d183 ff3b
000001a0: 5b11 383c b79c 233c 1056 e8bc 0ae9 cbbb
000001b0: 6e2d 8b3d fa88 253d 3a8c 5c3d a5a8 51bd
000001c0: b687 1abd f880 d3bc 5d92 243c 0d03 443d
000001d0: 59c6 7dbb 3c90 893d cb11 023d a8a5 fcbb
000001e0: 97a9 8a3c cfb8 4fbd 7964 18bd 2a11 0a3d
000001f0: 9ed2 b93c 312d 43bd 10bf 143c 9046 683d
00000200: ca3d 7f3d f75e 443c 33e4 ebbc adfd a4bc
00000210: 76f4 67bd d936 82bd d802 19bd 2fa7 873d
00000220: 905d 9d3d bfb5 293d 8183 1d3b 4d20 bebc
00000230: d605 09bd ecd8 92bd f509 abbd fd4c 12bd
00000240: cb2e 983d b94c 2f3d a1c2 223d 6d18 23bc
00000250: 06ad edbc fdb5 42bc e4a4 18bb 29ba 56bd
00000260: 45f4 2ebd 2919 31bd e321 15bc aa3b f2bc
00000270: 93bf 74bd 3144 dbbc 72ef 7bbd 558b 32bd
00000280: 0e15 e2bc a6d2 06bd 4931 c93c 88e8 913b
00000290: 617e 27bc 1bc5 03bc d56f 3ebb babf 5dbd
000002a0: 9e60 c939 8609 713a 9881 b5bc 3d09 093d
000002b0: 1f45 43bd cc85 453c 652c a3bc f3f6 53bd
000002c0: 3fe0 2dbd c977 70bd c20a 6fbd ed6a 5cbc
000002d0: c898 a03d 80c2 013c 85a6 933d 18b2 3ebd
000002e0: 326f cebd 7591 8abd d7c9 53bd e0f3 aabd
000002f0: 1f35 e3bd 5492 563d 1adc 45bb 2d33 ef3c
00000300: 0c38 0f3c 5344 063c 8765 e3bc 5be2 e23c
00000310: e42e 493c 7d8e f43c f274 ac3d 0e8e cc3d
00000320: a4c4 da3d 0d4d 4bbc bc50 78bd 5554 3e3d
00000330: 7b60 143d 23a6 f83d cbaa ce3c 1c1a 823c
00000340: d584 633c 250f 733d 271d 0dbd 04ef 1bbd
00000350: aacb d5bc 42c4 123d 8184 203c 6645 2d3d
00000360: 9e28 e63c b66c 0f3c 9cd1 923c ed35 3fbc
00000370: 9f3b ab3b 37e6 793d 4df9 473c 995d d43c
00000380: 029c d63c f2b9 17bd 82d8 8ebd 9ea2 a9bd
00000390: 750e 1a3d a2b6 80bd 9514 17bd c1a2 2e3d
000003a0: b09e 543d c1aa 643d 78de b63c 5c76 d4bc
000003b0: ef2e 7d3d 87ca 20bd 058a cfbd 1c7d eb3c
000003c0: 6002 b2bc 6153 46bc 41d9 e93c 3206 353c
000003d0: 33fa 103c bc20 9abb 7ad2 63bc 4faf 1d3c
000003e0: a21b 3ebd 80a5 663d 017c 7a3b a4fc 103c
000003f0: 1be3 d33c 15a8 523c 0eea 053d bcfb 48bd
0.082748786 0.08041914 0.068423264 0.016627366 -0.031835306 0.0333435 -0.04326467 0.006717331
0.025094153 -0.0090200985 0.026933262 0.043896373 -0.0031479993 -0.021698186 0.0065284865 0.00087503414
-0.058137294 0.044877212 0.10231744 0.005762747 -0.009215221 -0.072445646 -0.06735791 -0.04669801
0.004549724 -0.0062871585 0.023775319 0.038380157 -0.006268867 0.06681817 -0.037382793 -0.10396107
-0.03377379 -0.017389312 -0.00021696395 0.026896572 -0.0047399006 0.011361961 0.026989883 -0.04567331
-0.013795362 -0.048798736 -0.028488547 -0.060321264 -0.0484729 -0.017953282 -0.02656851 -0.051349904
0.038052984 -0.04846895 -0.059143733 0.039134312 0.0028703094 0.047256988 0.051566277 0.061878804
0.0073719225 -0.034576703 -0.12854467 -0.05912109 -0.0035724125 -0.11127546 -0.11584114 0.0087466985
0.11112323 0.043077502 0.0017882121 0.01778806 -0.049956314 -0.052204583 0.018351467 -0.029633857
-0.0062400475 0.01974968 0.019313531 0.05705107 -0.016511813 -0.004296028 -0.043393914 -0.011683452
-0.044526715 0.051289834 0.065491244 0.059498254 -0.008857078 -0.01131285 -0.052537035 0.054551084
0.11063788 0.053954776 0.018968994 0.012026323 0.03353746 -0.0149500705 -0.0296642 -0.06634463
-0.03805012 0.020510111 0.018587742 0.0055210437 -0.0014701876 0.030245043 0.052565224 0.007797696
0.011234607 0.009986094 -0.02836135 -0.006222849 0.067957744 0.040413834 0.053844668 -0.051186223
-0.03772708 -0.025818333 0.010044661 0.047854472 -0.003872296 0.06716964 0.03175525 -0.0077101775
0.01692657 -0.050713357 -0.037205193 0.033707775 0.022683438 -0.04765052 0.009078756 0.05670792
0.062314786 0.011985532 -0.028795337 -0.020140493 -0.05662962 -0.063581176 -0.037356228 0.066236846
0.07683861 0.041433092 0.0024034681 -0.023208762 -0.03345283 -0.07170281 -0.083515085 -0.035717953
0.074308 0.042797778 0.039736394 -0.009954554 -0.029013168 -0.01188421 -0.0023291642 -0.05242363
-0.042713422 -0.043236885 -0.0091023175 -0.029569466 -0.059753012 -0.026765915 -0.06150765 -0.04358991
-0.02759793 -0.032915734 0.024559634 0.0044527687 -0.010223002 -0.008042599 -0.0029058356 -0.054137923
0.00038409693 0.00091948395 -0.022156522 0.033456076 -0.04767334 0.012055825 -0.01991863 -0.05174918
-0.042450186 -0.058707986 -0.05835987 -0.0134532275 0.07841641 0.007919908 0.072094955 -0.046556562
-0.100798026 -0.06766025 -0.05170616 -0.08347297 -0.110941164 0.052385643 -0.0030191005 0.029199207
0.00874139 0.008195001 -0.027758373 0.027695825 0.012279246 0.0298531 0.08420743 0.09988032
0.106820375 -0.012408507 -0.06062387 0.046467144 0.036224823 0.12141063 0.025227925 0.01588159
0.01388665 0.059340615 -0.03445163 -0.03806974 -0.026098091 0.035831697 0.009797216 0.04230251
0.02809554 0.008753946 0.017922215 -0.011670572 0.0052256132 0.061010566 0.012205434 0.025923537
0.026197437 -0.037042566 -0.06974889 -0.0828297 0.037611444 -0.062848344 -0.036884863 0.042635683
0.05190915 0.055826906 0.022322878 -0.025935344 0.061812337 -0.039255645 -0.10133747 0.02874618
-0.021729648 -0.01210484 0.028545978 0.01104884 0.008848715 -0.0047036093 -0.013905162 0.009624316
-0.04641307 0.056310177 0.0038220885 0.008849297 0.025865128 0.012857457 0.032693915 -0.049068198

bias f4 [64]
00000000: b657 c63c 25b7 afbc 9bec acbc 4cdb 4c3b
00000010: ca04 9a3b 3fc1 d23c f9da 403c fd96 03bd
00000020: ef68 ccbc df44 fb3c 36d9 88bc 42f9 be3c
00000030: 6e89 c83b 099b 18bd 5213 32bd 96cd e93c
00000040: 0c1c afba 0ce1 bfbb 585a bb3c d16f 4cbb
00000050: 6ecc 493c 709a d43b be90 22bb 1de6 8e3c
00000060: 7512 06bd da7f cd3b e332 0fbd bcff 2fbd
00000070: ba89 3c3c a384 68bc 5e0b d837 4f4a 153c
00000080: 70c2 21bc a743 b9bc 6e86 3bbc fd01 5dbb
00000090: e137 373d 92c3 1cbd bedc 153c 1c53 84bc
000000a0: 0a3e b23c a4a8 8cbc f0bc cc3c d7f0 693c
000000b0: 228f e7bc dd28 44bb 3339 433c 4ecf 00bd
000000c0: eb7a 3f3c ca3e fa3c 81c5 01bb 5ad1 1f3c
000000d0: 2c42 77bc fa91 60bc decb f8bc 27a3 8eba
000000e0: 5605 c53c 2f2f 0a3d 5103 b53c e2cd d43c
000000f0: 5cc8 5abd 1446 eabc de77 f73c b4e1 ec3c
0.024211746 -0.021449635 -0.021108916 0.003125864 0.004700278 0.025726913 0.011770957 -0.032126416
-0.02495238 0.030672489 -0.016705137 0.023312215 0.0061198985 -0.037257228 -0.043475457 0.028540414
-0.0013359799 -0.005855685 0.022870228 -0.0031194577 0.012316806 0.006488137 -0.0024805511 0.017443711
-0.032732446 0.0062713446 -0.03496064 -0.042968497 0.011507446 -0.014191779 2.57545e-05 0.009111955
-0.009873018 -0.022615267 -0.011445625 -0.003372311 0.044731025 -0.038272448 0.009146867 -0.01615291
0.021758098 -0.017170258 0.024992436 0.014278612 -0.028266493 -0.0029931583 0.011915493 -0.0314477
0.011687021 0.030547518 -0.001980156 0.009754503 -0.01509146 -0.0137066785 -0.030370649 -0.0010882363
0.024050396 0.033736404 0.022096308 0.025977079 -0.053413734 -0.028597869 0.030208524 0.028916217

weight f4 [256, 256]
00000000: 7962 703d 1f47 253d c9f5 f53d c79d 543d
00000010: 1e28 453d 43ee 503d ad90 0bbd cee9 2d3d
00000020: 201f bbbd e954 94bd 33fb a0bd dd19 9dbd
00000030: 9158 d53d 9a8c a53d 1d3e b43c e6ae 7f3c
00000040: a06b 1f3d e217 dd3d 99c3 b03d 76ba 903d
00000050: 6f7f 9fbd 9c6d 9ebd d753 0bbc 272a 49bc
00000060: 59f2 c33d dcd9 9b3c e47d 2b3d 04bb f83b
00000070: 9ea6 453d aeb2 b33c 8bf0 cabb 6a97 3a3d
00000080: 0c21 963c ade4 9f3d a033 443d c4b9 ef3d
00000090: 6b70 a8bd 2916 593c e48e e33c 7cac 2f3d
000000a0: f73a 8cbb ea15 f3bb a544 5b3d 1c1a abbc
000000b0: 80a4 92bc 52f6 dbbc bf48 38bc bebd 6c3d
000000c0: af98 3cbd 09f0 fdbb c71b 5abc 7600 743d
000000d0: 7e10 3f3d 1955 2d3d 6076 c13d 5247 213d
000000e0: 0c4d 0ebd aa7a d03d 2ae8 a23d 5764 053d
000000f0: 01fb e2bb f1b0 3a3d ef44 abbc caab a33d
00000100: e2e5 d03d 6a63 4b3e 91b5 37bc 3261 2e3d
00000110: 3194 e23c 0e7d 9cbd 2232 1b3e ba17 b0bd
00000120: 15cf f0bb 3fd7 56bd a705 113e 0af4 fa3d
00000130: 35c2 753d 0d80 f33c 7c5a 333d b02f d43d
00000140: 66a4 fc3c 290e e23d deaa cd3d 0c0b 8bbc
00000150: 3c0a 863d 180f 98bd 71aa 993d 85f1 6cbd
00000160: 1711 8a3d abf2 f3bc ce3b ae3d 9710 f13c
00000170: 8afc ed3b 9646 d7bc faf9 313e e4b7 ae3d
00000180: 8ff5 053d de51 cfbc 8e48 69bd 4b3d 93bb
00000190: 9f20 403d 222a bfbc 4509 b53c d5b4 873d
000001a0: 323e ef3b f4fa 5ebd 6c3f 36bd 606e 0b3d
000001b0: e7db 5d3d 1d0e 81bc 504c ee3d db11 b3bd
000001c0: 72bf 923d 2ddd 123c e52b 113c 8fdf d6bd
000001d0: 5ace 9abd f58e 62bd 68f2 e1bd 3690 42bd
000001e0: 7d2d 5a3d 3623 773d 0120 8e3d ecfe b73d
000001f0: d104 9fbd b055 f23d 01fc 7b3c ad06 473d
00000200: 4d62 c23c 70e6 623c 8a5b 073d 2a52 153d
00000210: 96db d5bd 685d e9bc fc83 aebc 2f95 6b3c
00000220: 3146 12bd dfd7 62bd 3abe c43c d6b4 d63d
00000230: a65e 3e3d 2e20 0abc 7ce1 683b 5dfe 8a3d
00000240: bd76 09bd d768 dc3c dd32 febd 4897 aa3c
00000250: 48cd 6c3c 0fe4 03bd d6ae 403d 30c7 e13b
00000260: af1d df3c d2bf ac3d a41d bf3d 0158 9c3d
00000270: 4dd6 ed3d 81bd b73c 9667 0d3e 931f e93c
00000280: 03b5 4dbc cd77 b73d d9e4 813d 08d4 ce3d
00000290: 6b50 433d 17f9 8c3d 1469 4c3d 0b41 e03d
000002a0: 3939 803c edcc f73d ef74 ca3d 93cc dc39
000002b0: 4f2f 20bd 858e c43c 1107 d43c 3415 e33d
000002c0: 102f bebc 0912 8dbd 648b e83d 995d 033e
000002d0: 8775 8e3d 13d9 243d 7f88 67bc 2ee7 b0bc
000002e0: 4f7a b03c 4aaf 603d eb7d fcbc bdf9 eb3b
000002f0: f656 863d f48d ebbc 1294 edbb e778 b9bb
00000300: 2d0c 6dbd 6705 a6bd 9375 b8bb 3ecd 76bd
00000310: 17b6 843d fbac fa3d 613a cb3d 8e93 8e3c
00000320: 2884 57bd eb59 08bd 1863 e33c 7ec4 273e
00000330: a654 a33d 70f9 e23c 455d 0f3e c52d 88bc
00000340: c228 213d e34b b43d c231 343d 688e fb3d
00000350: fd2e c23d 0bf1 ea3b 77e3 003e 4cc3 863c
00000360: 6cb3 173d 4798 823d 7168 cd3d e71d db3c
00000370: 27e7 3bbc 3a90 823d afd8 983d 0d46 1c3e
00000380: 76e1 943c 3031 96bc a262 023e 6ca1 2c3d
00000390: 14f6 7dbc dfc5 b03c b129 c4bb b093 073e
000003a0: 9f5f e13d fa62 7f3d 2e4d 023c 5ab1 d33c
000003b0: 918e 82bd 271d c9bc 5ff1 1d3d c2f8 e53c
000003c0: 7277 5dbd b4c0 5e3d d09c c5bc 60a8 033b
000003d0: f6a9 f53c d6bc 923c 52b8 cc3b 0541 ae3c
000003e0: 2407 b53d b29b 4d3c feb1 7d3d 2aaf ff3d
000003f0: 8867 8e3b e82e 003e 6fde 583d 4be1 2f3d
0.05868766 0.04035103 0.120097704 0.05190828 0.04813396 0.051008474 -0.03407352 0.0424593
-0.09136796 -0.07242758 -0.078604124 -0.07670949 0.10417283 0.08083458 0.022002274 0.015605664
0.038921 0.10795571 0.08631057 0.070668146 -0.07787978 -0.0773575 -0.008503876 -0.012278116
0.095677085 0.019024782 0.041868106 0.0075906534 0.0482546 0.021935787 -0.0061932257 0.045554556
0.018326305 0.07807288 0.047900796 0.11705354 -0.08224567 0.013249912 0.027778096 0.042889103
-0.00427949 -0.007418384 0.05353226 -0.020886473 -0.017900705 -0.026850853 -0.011247813 0.05779814
-0.046044048 -0.0077495617 -0.013312287 0.059570752 0.046646588 0.042317484 0.09446406 0.039374657
-0.034741446 0.10179646 0.07954438 0.032566395 -0.0069268947 0.0455789 -0.020906894 0.079917505
0.10200097 0.19862142 -0.011212722 0.04257316 0.027658554 -0.0764104 0.15155843 -0.085982755
-0.007348905 -0.05245137 0.14162312 0.12253578 0.059999663 0.029724145 0.043787464 0.10360658
0.03084011 0.11037857 0.10042356 -0.016973041 0.06544921 -0.07424754 0.07503212 -0.05784752
0.06741541 -0.029778799 0.085075006 0.029426856 0.007262771 -0.026278775 0.17380515 0.08531168
0.032704886 -0.025307592 -0.05695396 -0.0044933907 0.04690611 -0.02333552 0.022099147 0.06626288
0.0073011154 -0.054438546 -0.044494078 0.03404081 0.054164793 -0.0157538 0.11635649 -0.0874364
0.071654215 0.008963865 0.008860563 -0.10491859 -0.0755889 -0.055312116 -0.110325634 -0.04750081
0.053266037 0.060336314 0.06939698 0.08984169 -0.077645905 0.1183275 0.015379907 0.04859035
0.023728514 0.013848886 0.033046283 0.03645531 -0.10442273 -0.028486922 -0.02130317 0.01437883
-0.03571147 -0.055381652 0.024016488 0.104837105 0.046476983 -0.008430524 0.003553479 0.06786797
-0.033560503 0.02690546 -0.12412045 0.02082409 0.01445324 -0.032199915 0.047041737 0.0068902
0.027235834 0.08435024 0.093318254 0.07633973 0.1161314 0.02242923 0.13809046 0.028457439
-0.012555364 0.08958397 0.06342477 0.100990355 0.047684114 0.068834476 0.049904898 0.10949906
0.015652286 0.12099633 0.098855846 0.0004211409 -0.039107617 0.02399374 0.025882276 0.110880286
-0.0232158 -0.068882056 0.11354712 0.12828673 0.0695601 0.04024608 -0.014131664 -0.02159461
0.021542696 0.05485467 -0.030821761 0.007201402 0.06559555 -0.028754212 -0.0072503174 -0.0056601646
-0.05787294 -0.08106499 -0.0056292503 -0.060254328 0.064800434 0.12240025 0.09923244 0.017404344
-0.05261627 -0.033288877 0.027757213 0.1638355 0.0797513 0.027706832 0.14000423 -0.016623387
0.03934551 0.08803537 0.043992765 0.12283021 0.094816186 0.007169848 0.12586771 0.016450547
0.037036344 0.06376701 0.10029686 0.026747657 -0.011468685 0.06375165 0.07463204 0.15261097
0.018173914 -0.018334001 0.12732938 0.04214613 -0.015500564 0.021578727 -0.0059864153 0.13239932
0.110045664 0.06235025 0.007952971 0.025841404 -0.06374849 -0.024550034 0.038560268 0.028072719
-0.05406899 0.054382995 -0.024122626 0.0020089373 0.02998827 0.01791231 0.0062475586 0.021271238
0.088392526 0.012549328 0.061937325 0.12484582 0.004345838 0.12517893 0.052946504 0.042939465

bias f4 [256]
00000000: c924 99bc ddce 383b 9b33 0ebd 07f4 fc3d
00000010: d59f 8f3c cfe0 1f3d 5ffc 743c f7b8 b03c
00000020: 9b3e e93c d491 2d3d d983 7bbc 5807 38bd
00000030: 2620 cb3d 47e8 713d 3566 d5bb f829 b73d
00000040: 6593 063b a48f 7a3d 4708 993d 1187 643d
00000050: 7172 503d 026f 123d 42bb 3cbd daff 0ebd
00000060: bd60 d03d d4ad 97bc cec1 63bc 041a 60bb
00000070: 2653 e53c be3e 443d b77b a23d 0408 37bd
00000080: a6fb e0bc 01a7 15bb 45f5 543d ec53 073c
00000090: c191 01bc 0711 833d 8321 19bc 4ad6 bd3c
000000a0: ea04 9e3b b478 0a3d 8944 4b3b 961c 53bd
000000b0: 2165 c73d 9b92 123d bd21 993c d463 133d
000000c0: a271 24bc fe4e fd3b 372a b03d b151 073d
000000d0: e5c8 3a3d a2d2 7d3d 8c35 20bd 3c64 7b3d
000000e0: d65a e13b 26c8 1fbd 3776 783d 5055 483c
000000f0: bc70 bf3c 0cdb 883c 9546 16bd a6a0 f1bb
00000100: 7d6f 013d e02b 913d 64f8 383d af00 d13d
00000110: aea1 0e3d d0a3 c03c 8296 b13c cb03 603d
00000120: 895d 013d 7825 7ebd 7047 b53d 946a b9bc
00000130: 131b 19bd 90df 8a3d 6539 ce3b 5d74 e43d
00000140: d499 0abc 66f4 d13c cdd1 a2bc af5c 863c
00000150: c286 e33b 57e3 fa3c 3550 d33d 7b1e 013d
00000160: a72c 8f3d ebfe 2abc 32cf f73b de08 b5bc
00000170: 06b1 433d 6795 18bd fa24 5c3d 076b 943d
00000180: aaae ff3c 15b7 3b3d 1444 f3bc b1ee 163d
00000190: 92df 66bd 4f00 8f3d fd53 bf3c 00f9 a33d
000001a0: 77a7 173d 0459 353d e8ef ac3b b5d0 96bc
000001b0: 1d1c 91bc 6af4 b6bc 5e63 86bb ddd2 27ba
000001c0: 103e 9a3d 29e7 41bd f835 0b3d 191d 7c3c
000001d0: ad18 be3c f969 6a3d 3bc3 31bd 8b76 273d
000001e0: 2be6 733d 31a4 233c 201a 4a3d 3059 bebb
000001f0: 0c0c 293c 8b46 8f3c e06f bcbb b619 3a3d
00000200: 9dcc 5bbc 4be4 793a 2024 6a3c 3e8f 033c
00000210: 0cf8 aa3d 83b6 73bd 392a b53d 66ad ccbc
00000220: 6362 503d c68e e7bc c220 0e3d c800 80bd
00000230: 9c06 553d 6861 4c3d a365 9e3c 1e6d 653d
00000240: 7460 513d d886 703d e9ba 36bc a7d7 c53d
00000250: a35e 4e3d adcb bfbc a83c 283d 3e2e 8836
00000260: 6ecc 533d 7644 543d ddd8 893d e633 c03c
00000270: 5f9f d83b db3c 713d fa7c 863b c917 3e3c
00000280: 3066 a6bc 44b8 833d 73eb 023c 2cb8 8a3c
00000290: bbd8 823d 726b 2abd 5052 6c3d 93c8 223c
000002a0: c386 8e3d 2445 87bd 9178 bf3c 0808 8e3c
000002b0: 916d 39b7 33b4 ba3c 746d 1cbd 49b2 8d3c
000002c0: f13b 283c c8b0 123d e307 6f3d 6b05 1ebb
000002d0: 9d0c 7ebc 78ab 8dbc 2d7a 3bbb 7aeb 063d
000002e0: 40ba d9bc 2aaa 953d c8cc 473d 8ae5 abbc
000002f0: 03f0 573d 8cf5 5f3d 0bfc 133d 6cfd a73b
00000300: aa84 86ba 4eea 813d adce 413d 7630 963d
00000310: 74e1 b33c 1c13 7f3d 513a f1bc d629 0b3d
00000320: be99 fabc 41b5 7d3d 469c 383d 1408 bf3d
00000330: cfa1 9e3c 8cde c63d 456c e739 0a3b 2f3a
00000340: fac5 c33d caa6 e3bc e18a 22bd 687c 2cbd
00000350: 734f 5abc c725 233d 3fa4 03bd 7500 453c
00000360: 59c9 733d e4c9 ad3c f3fb 4dbd 9af5 2b3d
00000370: 4f5e c03d 22da ac3d b17a 853d 6934 563d
00000380: 802c c8bc b467 7e3d 99ee b23d 243f 3d3d
00000390: 25a3 02bd 7425 8d3d a699 e73b f404 fd3c
000003a0: 4c83 a63d 7c07 bb3d de80 bf3d 1d34 aa3d
000003b0: 9688 413d 08ec 433d 5d41 59bb 21ec 9c3d
000003c0: c680 c83d 0761 beba 4a6e ee3c d24b 1d3d
000003d0: a0ba 383d b286 c8bc 9a96 273c aaf6 123d
000003e0: 00a8 543d 95a9 2c3c cba2 b73d 5417 113d
000003f0: 0426 af3c 5cf0 d83b fc66 8ab8 709c 963d
-0.018694298 0.0028199472 -0.034717184 0.12351232 0.017532269 0.039032754 0.014952748 0.021572573
0.028472235 0.0423754 -0.015351259 -0.04492888 0.09918241 0.059059408 -0.006512428 0.08943552
0.0020534631 0.061172143 0.07472282 0.055792872 0.05089039 0.035750397 -0.04607702 -0.034911968
0.10174701 -0.018515505 -0.013901187 -0.0034195194 0.02799375 0.047911398 0.07933753 -0.04468538
-0.027463745 -0.0022835138 0.05199172 0.008259755 -0.007908286 0.06399732 -0.009346369 0.02317347
0.004822363 0.033806518 0.0031016192 -0.051540934 0.09736086 0.035784345 0.018692845 0.035983875
-0.010036858 0.007730364 0.08601802 0.03303689 0.045601744 0.061968453 -0.039113566 0.061374888
0.0068772836 -0.039009236 0.060659613 0.012227371 0.023369186 0.016706012 -0.036688406 -0.007373887
0.031600464 0.070884466 0.04515876 0.102052085 0.03482216 0.023515612 0.021678213 0.054691117
0.031583343 -0.06204745 0.08851516 -0.022633828 -0.037379336 0.067809224 0.006293463 0.11155007
-0.008459527 0.025629234 -0.019875431 0.016401617 0.0069435546 0.030625982 0.10318033 0.03152321
0.06990939 -0.010436754 0.0075625414 -0.022098955 0.047776245 -0.037251856 0.0537462 0.07246976
0.031211216 0.045828898 -0.029695548 0.036848728 -0.056365557 0.06982481 0.023355478 0.08006477
0.03702494 0.044274345 0.0052776225 -0.018410066 -0.0177136 -0.022333343 -0.004101201 -0.00064019655
0.07531369 -0.047339592 0.033987015 0.015387797 0.023205126 0.05722997 -0.043399077 0.040884536
0.059545677 0.009987877 0.04934132 -0.005808972 0.010317814 0.017489692 -0.005750641 0.045434676
-0.013415483 0.00095326145 0.014290839 0.008029757 0.083480924 -0.05950023 0.08845944 -0.024985027
0.05087508 -0.028266322 0.03469921 -0.06250149 0.052008256 0.04989758 0.019335574 0.056012265
0.051117375 0.058722347 -0.011152961 0.09660273 0.05038322 -0.02341255 0.04107347 4.058499e-06
0.05170863 0.051823102 0.067308165 0.023462247 0.0066107954 0.058895927 0.004104254 0.0116023505
-0.020312399 0.0643163 0.007990706 0.016933523 0.06388994 -0.041606374 0.057695687 0.009935516
0.069592975 -0.066049844 0.02337292 0.017337814 -1.105237e-05 0.022791004 -0.03819032 0.017296927
0.010268197 0.035813123 0.05835713 -0.0024112116 -0.015505937 -0.017293677 -0.0028606758 0.03293941
-0.026578069 0.07307847 0.04877928 -0.020983476 0.052719127 0.05467753 0.03612904 0.005126646
-0.0010262926 0.06343518 0.047316242 0.07333462 0.02195809 0.062274083 -0.029446753 0.033975445
-0.030590888 0.061940435 0.04507091 0.09327713 0.019364266 0.09710416 0.0004414042 0.0006684518
0.095592454 -0.027789492 -0.039683226 -0.04211083 -0.013324606 0.03983095 -0.03213906 0.012024035
0.059518192 0.021214433 -0.050289106 0.04198227 0.09392988 0.08440043 0.06517542 0.052296076
-0.024435282 0.062110618 0.08736915 0.046202794 -0.031893868 0.06891909 0.007067877 0.03088615
0.08130512 0.09132287 0.09350751 0.08310721 0.0472494 0.04783252 -0.0033150532 0.076622255
0.097901866 -0.0014524766 0.029105324 0.038402386 0.045099854 -0.02447829 0.010228777 0.03587977
0.05191803 0.010538478 0.08966597 0.035422638 0.021380432 0.00662045 -6.599535e-05 0.07354057

weight f4 [1, 256]
00000000: 07df e9bd 1a8e 02be f646 d9bd fa98 323e
00000010: 23aa 643e d511 bbbd c61d e9bd 3e6f 693e
00000020: 58b4 0b3e 42b9 c7bd df4a f9bd 521b 11be
00000030: 3e72 253e eee7 03be 6680 d2bd 86be 053e
00000040: b470 f3bd 89af 4b3e 1168 503e 24d4 bbbd
00000050: 8061 323e e532 ccbd 9c03 ebbd ba61 c73a
00000060: 752f 453e 3162 20be ed5e bcbd fdcf 97bd
00000070: c494 403e ad47 b6bd 9613 353e 263b c4bd
00000080: 75d7 01be 0aa0 bfbd 821f 693e 2f81 16be
00000090: cafd ecbd 2519 663e b72d c8bd 79b3 8bbd
000000a0: 2e67 613e c245 b1bd 0afd 0ebe 4ddb d5bd
000000b0: 46a8 463e 2739 02be 4678 ebbd 5a16 403e
000000c0: 1812 d5bd 9df8 f1bd 51da 3c3e 4b90 3d3e
000000d0: 4fae 4b3e 3fc8 0cbe 098d eabd 78ae c9bd
000000e0: 9c37 d5bd b8ae 08be 356c f0bd 962a 3a3e
000000f0: dcb0 d8bd 104b cebd 0678 21be dc09 e8bd
00000100: bbdd 363e 9251 02be 32c0 abbd ca79 373e
00000110: 4e70 3e3e 886e f4bd b329 95bd 30ab bebd
00000120: ddfd 5a3e b1eb e1bd a2ef 3b3e 50f2 e3bd
00000130: 4c66 f5bd 9891 013e 6508 393e b0d3 3e3e
00000140: 7f16 1ebe c02e 393e 8019 0cbe 4620 10be
00000150: 462a 03be 0560 503e 64f6 123e 21c7 b3bd
00000160: 4ed0 513e 7a03 c2bd 38e6 193e 3198 cebd
00000170: 2a3b b4bd 5bb8 b6bd ad89 02be 6122 633e
00000180: e3aa b7bd e4bd 853e 7dc0 18be 4bda 03be
00000190: ec27 d1ba 83e7 e3bd 2e4a 893d 9cbb 463e
000001a0: f869 533e 8a49 01be 7d34 0cbe 63c2 0ebd
000001b0: 9b12 bbbd 1bc7 0bbe 58cc c2bd 8ef8 18be
000001c0: 25c2 383e 8b20 05be b025 3f3e 1499 eabd
000001d0: ed58 e9bd fdac 403e 1d18 4b3d 1eef a4bd
000001e0: d636 c0bd 1e44 363e 6e6a adbd 1fbe dcbd
000001f0: 95b6 b3bd b770 3b3e fd67 b4bd 9b86 fcbd
00000200: 4bb8 e0bd be5a d0bd 1cab f0bd 4dab b1bd
00000210: 6e4b 2b3e 1424 a7bd 2911 4d3e 6bd2 b4bd
00000220: 541b 6e3e 5849 c2bd ca00 bcbd 81fb 653d
00000230: 36c7 c7bd abb5 493e 528b 98bd c08b 243e
00000240: 8339 473e 1a4a e43d f91b e93c 0895 2c3e
00000250: 2821 3a3e 805f 96bd d13f 02be 38f2 363e
00000260: 4050 d0bd ef6f 383e a44f 3a3e b26d 803e
00000270: dac6 ffbd e167 163e 0e33 c8bd 3f26 01be
00000280: a34d 0abe 26d7 2f3e 9fce 153e a2ea 1d3e
00000290: 3881 113e 0f80 24be 09b3 cabd 5ded dbbd
000002a0: 96e6 3f3e ffc2 593b f0cf 04be ec64 343e
000002b0: 01fd f7bd 7280 b9bd 69e2 08be 55c2 fcbd
000002c0: 2270 743e f6bb 323e 8a18 223e d77a 9a3b
000002d0: 9488 fabd b73f fabd 721b 613e 3d6a c5bd
000002e0: 50d1 edbd a8d3 3d3e 12dc d3bd ccfc 04be
000002f0: 1d89 09be 93c9 373e 4514 413e 2b77 edbd
00000300: 0cd3 07be e08a a6bd 100a f1bd 118e 183e
00000310: 1a6e 09be 5f45 e9bd 907d 16be cc6c 383e
00000320: b506 f9bd 194c 693e 474a c0bd df9b 193e
00000330: dad8 483e bdb3 493e f8ea 423e 2cee cbbd
00000340: 8eeb 123e 9aab e8bd d51f a7bd 2c6c dbbc
00000350: fc60 e0ba 21cc 0ebe 4d4b e7bd e26a d6bd
00000360: 9982 3e3e ce87 05be 7b39 c2bd a7e5 01be
00000370: b400 1e3e 33f7 353e e41b 653e 1211 723e
00000380: 3f83 bf3c e5da 673e abd1 233e 24df 703e
00000390: c8c0 f4bd 40ca 2d3e c3de cebd 95c6 c1bd
000003a0: 3986 293e ab41 1a3e adfe 173e 30f4 553e
000003b0: b093 0cbe acb6 f83d 59cc debd 2c5c 523e
000003c0: e217 1b3e 916f 9abd 5d6a f6bd 8128 203e
000003d0: af73 c1bd 6733 07be c35e d2bd eb22 4a3e
000003e0: fd73 583e ade5 f6bd 18e2 1c3e 1e1a eabd
000003f0: 6686 b3bd dfc9 d03d d96f d4bd 08fb 403e
-0.11419492 -0.1274952 -0.10609238 0.17441168 0.22330527 -0.091342606 -0.11382632 0.22796342
0.13643014 -0.09752132 -0.12172484 -0.14170578 0.16156861 -0.12881443 -0.10278396 0.1306096
-0.11886731 0.1989118 0.20352198 -0.09171322 0.17420006 -0.09970645 -0.11475298 0.001521162
0.19256385 -0.15662457 -0.09197793 -0.074127175 0.1880675 -0.0890039 0.17683253 -0.09581594
-0.12679847 -0.09356697 0.22765926 -0.14697717 -0.11571844 0.2247053 -0.097743444 -0.06821341
0.22012016 -0.08655883 -0.13963714 -0.10442219 0.19400129 -0.12717114 -0.1149755 0.18758526
-0.10403842 -0.11814997 0.18442656 0.18512075 0.19890712 -0.13748263 -0.114526816 -0.098477304
-0.10410997 -0.133479 -0.11739389 0.18180308 -0.10580608 -0.10072911 -0.15768442 -0.113300055
0.17858021 -0.12726429 -0.08386268 0.17917553 0.18597528 -0.11935145 -0.07283344 -0.09309995
0.21385904 -0.11031283 0.18353131 -0.11130202 -0.11982402 0.12653196 0.18069609 0.1863544
-0.15438269 0.1808424 -0.13681602 -0.14074811 -0.12809095 0.20349129 0.14351803 -0.08778215
0.20489618 -0.09473319 0.15029228 -0.10087622 -0.08800347 -0.08921882 -0.12747832 0.22181083
-0.08968141 0.26121438 -0.14917178 -0.12876241 -0.0015957332 -0.11128142 0.06703602 0.19407505
0.20645893 -0.12625709 -0.13691898 -0.03485335 -0.09134408 -0.13650171 -0.09511632 -0.14938566
0.1804281 -0.13000695 0.1866672 -0.114549786 -0.11393914 0.1881599 0.049583543 -0.080534205
-0.09385459 0.17799422 -0.084675655 -0.1077845 -0.08775059 0.18304716 -0.08808897 -0.123303615
-0.10972651 -0.10173558 -0.117513865 -0.08675251 0.16727993 -0.08161178 0.20026077 -0.088291965
0.23252612 -0.094866455 -0.09179838 0.056148056 -0.09754793 0.19698207 -0.07448448 0.16068935
0.19455533 0.11146946 0.028455721 0.16853726 0.1817671 -0.07342434 -0.12719657 0.17865837
-0.101715565 0.1801145 0.18194443 0.2508369 -0.124891 0.14688064 -0.09775363 -0.12612246
-0.13506179 0.17171916 0.14629601 0.15421537 0.1420945 -0.16064475 -0.098974295 -0.10738633
0.18740305 0.00332278 -0.12969947 0.17616624 -0.121088035 -0.09057702 -0.13367619 -0.123417534
0.238709 0.17454514 0.15829673 0.0047143507 -0.122330815 -0.12219184 0.21983126 -0.09639404
-0.11612189 0.18537772 -0.103447095 -0.1298706 -0.13431211 0.17947988 0.18855388 -0.11594995
-0.13264102 -0.08131957 -0.117694974 0.14897944 -0.13420907 -0.113901846 -0.14696336 0.18010253
-0.121594824 0.22782935 -0.09389167 0.15000866 0.19613972 0.19697471 0.19034946 -0.09957537
0.1434767 -0.113608554 -0.08160368 -0.026784979 -0.0017118747 -0.13945056 -0.11293659 -0.10469605
0.18604507 -0.13040087 -0.0948362 -0.12685262 0.15429956 0.1777008 0.2237392 0.23639324
0.023378013 0.22642095 0.1599795 0.23522621 -0.119508326 0.16971684 -0.10101082 -0.09461705
0.16555108 0.15064113 0.14843245 0.20893931 -0.13728213 0.12144217 -0.1087882 0.20542973
0.1514583 -0.07540811 -0.12032006 0.15640451 -0.09445893 -0.13203202 -0.102719806 0.19739883
0.21137996 -0.12055526 0.15320623 -0.11430763 -0.08765869 0.10194754 -0.10372896 0.18845761
